app/src/main/ml/doc_seg_nasnet_224.tflite (tflite, 631954 bytes, 230 tensors)

arith.constant f2 [128]
0.04263 0.04688 0.1026 0.02087 0.10736 0.05167 0.10864 0.0758
0.1848 0.07074 0.1302 0.0835 0.05444 0.2113 0.10626 0.05893
0.0628 0.062 0.0787 0.05383 -0.02415 0.11865 0.10767 0.2412
0.0408 0.163 0.03668 0.0715 0.04837 0.0825 0.1387 0.0669
0.0529 0.05902 0.0633 0.1017 0.0756 0.1353 0.02441 0.0978
0.0963 0.1534 0.0088 0.0671 0.1121 0.008125 0.0947 0.04535
0.02583 0.1738 0.1455 0.146 0.05927 0.06143 0.003523 0.04724
0.03326 0.04514 0.1616 0.1344 0.08453 0.03607 0.02486 0.0922
0.01915 0.03372 0.0355 0.0611 0.02956 0.1758 0.05194 0.131
0.1621 0.06024 0.03943 0.02657 0.1785 0.02809 0.02371 0.1875
0.04498 0.0597 0.0631 -0.0203 0.1198 0.012886 0.04306 0.10425
0.04883 0.148 0.07416 0.05215 0.07007 0.1268 0.01917 0.088
0.02702 0.1592 0.2896 0.0753 0.2281 0.02806 0.10046 0.099
0.0618 0.1356 0.01752 0.022 0.1409 0.0725 0.1736 0.1007
0.03087 0.0346 0.1605 0.05408 0.0545 0.1324 0.011406 0.1321
0.03406 0.02155 0.0688 0.12164 0.02893 0.02141 0.02748 0.129
00000000: 7529 002a 912e 5825 df2e 9d2a f42e da2c
00000010: ea31 872c 2b30 582d f82a c332 cd2e 8b2b
00000020: 052c f02b 092d e42a 2fa6 982f e42e b833
00000030: 3929 3731 b228 932c 312a 482d 7030 482c
00000040: c52a 8e2b 0d2c 822e d72c 5430 4026 422e
00000050: 2a2e e930 8120 4b2c 2d2f 2920 102e ce29
00000060: 9d26 9031 a830 ac30 962b dd2b 371b 0c2a
00000070: 4228 c729 2c31 4d30 692d 9e28 5d26 e72d
00000080: e724 5128 8b28 d22b 9127 a031 a62a 3130
00000090: 3031 b62b 0c29 cd26 b631 3127 1226 0032
000000a0: c229 a42b 0a2c 32a5 ab2f 9922 8329 ac2e
000000b0: 402a bc30 bf2c ad2a 7c2c 0f30 e824 a22d
000000c0: eb26 1831 a234 d22c 4d33 2f27 6e2e 562e
000000d0: e92b 5730 7c24 a225 8230 a42c 8e31 722e
000000e0: e727 6e28 2331 ec2a fa2a 3d30 d721 3a30
000000f0: 5c28 8425 672c c92f 6827 7b25 0927 2130

arith.constant1 f2 [128]
1.053 1.1 1.144 1.07 1.267 1.122 1.163 1.135
1.266 1.068 1.166 1.109 1.06 1.33 1.083 1.16
1.129 1.12 1.241 1.098 0.979 1.226 1.177 1.339
1.094 1.11 1.122 1.053 1.1 1.071 1.206 1.149
1.075 1.12 1.125 1.204 1.131 1.171 1.037 1.131
1.172 1.2705 1.026 1.129 1.145 1.071 1.121 1.137
1.086 1.179 1.178 1.193 1.18 1.107 1.066 1.105
1.126 1.115 1.189 1.214 1.126 1.115 1.037 1.145
1.073 1.068 1.09 1.129 1.069 1.249 1.059 1.181
1.147 1.1045 1.071 1.062 1.284 1.086 1.031 1.222
1.091 1.042 1.083 1.063 1.184 1.051 1.136 1.19
1.033 1.182 1.15 1.114 1.161 1.155 1.064 1.115
1.05 1.176 1.382 1.163 1.266 1.077 1.233 1.129
1.183 1.311 1.045 1.027 1.186 1.093 1.28 1.158
1.059 1.073 1.173 1.118 1.135 1.308 1.066 1.146
1.028 1.15 1.139 1.164 1.098 1.056 1.145 1.204
00000000: 363c 663c 933c 483c 113d 7d3c a73c 8a3c
00000010: 103d 463c aa3c 703c 3d3c 523d 553c a43c
00000020: 843c 7b3c f73c 643c d53b e73c b53c 5b3d
00000030: 603c 713c 7d3c 363c 663c 493c d33c 993c
00000040: 4d3c 7b3c 803c d13c 863c af3c 263c 863c
00000050: b03c 153d 1b3c 843c 943c 493c 7c3c 8c3c
00000060: 583c b73c b63c c63c b83c 6e3c 443c 6c3c
00000070: 813c 763c c23c db3c 813c 763c 263c 943c
00000080: 4b3c 463c 5c3c 843c 473c ff3c 3c3c b93c
00000090: 973c 6b3c 493c 3f3c 233d 583c 203c e33c
000000a0: 5d3c 2b3c 553c 413c bc3c 343c 8b3c c33c
000000b0: 223c ba3c 9a3c 753c a53c 9f3c 423c 763c
000000c0: 333c b43c 873d a73c 103d 4f3c ef3c 843c
000000d0: bb3c 3e3d 2e3c 1c3c be3c 5f3c 1f3d a23c
000000e0: 3c3c 4b3c b13c 793c 8a3c 3b3d 443c 963c
000000f0: 1d3c 9a3c 8e3c a83c 643c 393c 943c d13c

arith.constant21 f2 [44]
0.534 0.3345 0.2622 0.332 0.5596 0.1696 0.2495 0.1913
0.3806 0.4954 0.3618 0.4307 -0.2595 0.3726 0.5234 0.829
0.2125 0.579 0.2484 0.2423 0.304 0.2498 0.4775 0.251
0.2961 0.3945 0.3257 0.257 0.353 0.4343 0.35 0.1686
0.718 0.4355 0.2194 0.2432 0.4058 0.3687 0.3787 0.7837
0.3308 0.198 0.41 0.3066
00000000: 4638 5a35 3234 5035 7a38 6d31 fc33 1f32
00000010: 1736 ed37 ca35 e436 27b4 f635 3038 a23a
00000020: cd32 a238 f333 c133 dd34 fe33 a437 0434
00000030: bd34 5036 3635 1d34 a635 f336 9a35 6531
00000040: be39 f836 0533 c833 7e36 e635 0f36 453a
00000050: 4b35 5632 8f36 e834

arith.constant22 f2 [44]
7.594 -1.7705 5.37 0.2372 3.764 2.754 5.016 3.037
-1.653 -0.3193 0.1431 -0.6597 -0.3127 6.734 3.459 -4.62
1.678 -1.721 3.9 3.775 -1.283 1.103 4.992 -0.766
1.321 4.465 0.1467 3.984 1.447 -0.2751 -1.671 2.77
-4.707 4.17 2.432 -2.092 11.51 5.035 9.734 -8.36
0.534 8.06 -3.307 -2.623
00000000: 9847 15bf 5f45 9733 8743 8241 0445 1342
00000010: 9dbe 1cb5 9430 47b9 01b5 bc46 eb42 9fc4
00000020: b63e e2be cd43 8d43 22bd 693c fe44 21ba
00000030: 493d 7744 b230 f843 ca3d 67b4 afbe 8a41
00000040: b5c4 2c44 dd40 2fc0 c149 0945 de48 2ec8
00000050: 4638 0848 9dc2 3fc1

arith.constant23 f2 [88]
0.7666 0.791 0.5713 0.443 0.2445 0.4536 0.3816 0.2289
0.365 0.675 0.429 0.2103 0.4907 0.2625 1.342 0.503
0.2169 0.709 0.5654 0.245 0.532 0.7026 0.3977 0.5083
1.168 0.33 0.6543 0.5776 0.4844 0.7524 1.059 0.574
0.716 0.5522 0.464 0.5547 0.4873 0.4033 0.6377 0.634
0.479 0.598 0.8706 1.043 0.5776 0.459 0.7563 0.7344
0.5786 0.654 1.338 0.542 0.8013 0.4604 0.5264 0.4705
0.479 0.8613 0.4275 0.678 0.428 0.4321 0.1543 0.479
0.7427 0.6807 0.6045 0.331 0.4885 0.294 0.1772 0.4766
0.3982 0.4253 0.524 0.718 0.6343 0.614 0.4946 0.4675
0.532 0.335 0.661 0.4907 0.5225 0.748 0.5386 0.2573
00000000: 223a 543a 9238 1737 d333 4237 1b36 5333
00000010: d735 6639 dd36 bb32 da37 3334 5e3d 0638
00000020: f132 ac39 8638 d733 4238 9f39 5d36 1138
00000030: ac3c 4835 3c39 9f38 c037 053a 3c3c 9838
00000040: ba39 6b38 6d37 7038 cc37 7436 1a39 1239
00000050: aa37 c938 f73a 2c3c 9f38 5837 0d3a e039
00000060: a138 3b39 5a3d 5638 693a 5e37 3638 8737
00000070: aa37 e43a d736 6d39 d936 ea36 f030 aa37
00000080: f139 7239 d638 4c35 d137 b434 ac31 a037
00000090: 5f36 ce36 3138 be39 1339 e938 ea37 7b37
000000a0: 4238 5c35 4a39 da37 2e38 fc39 4f38 1e34

arith.constant24 f2 [88]
-1.135 -7.74 -0.817 -0.3135 -0.4436 -3.033 -1.817 0.8184
-2.482 0.973 0.6255 0.5273 -0.1951 1.421 1.639 -2.58
1.608 2.566 -0.5923 2.83 -2.922 -2.941 0.465 1.3955
-2.404 -2.068 -0.6553 1.727 -3.264 2.484 -3.076 -0.7046
0.6685 1.506 -0.2349 -1.745 -1.322 1.017 0.07007 0.256
0.10956 0.822 -1.305 0.514 2.832 -1.763 0.4666 1.783
-0.01741 -0.2141 -3.031 -0.588 -2.49 -0.008484 1.589 1.947
1.664 -2.373 -1.3955 -4.31 2.318 -0.462 0.2822 0.6626
-3.406 1.008 -0.04257 3.129 -0.1877 0.4485 1.97 0.6396
-0.905 1.119 -1.87 0.3018 -4.742 -3.29 0.6196 1.493
0.7334 -0.7554 0.5874 0.504 -1.053 2.402 -2.635 2.186
00000000: 8abc bdc7 89ba 04b5 19b7 11c2 45bf 8c3a
00000010: f7c0 c93b 0139 3838 3eb2 af3d 8e3e 29c1
00000020: 6f3e 2241 bdb8 a941 d8c1 e2c1 7137 953d
00000030: cfc0 23c0 3eb9 e83e 87c2 f840 27c2 a3b9
00000040: 5939 063e 84b3 fbbe 4abd 113c 7c2c 1934
00000050: 032f 933a 38bd 1d38 aa41 0dbf 7737 223f
00000060: 75a4 dab2 10c2 b4b8 fbc0 58a0 5b3e ca3f
00000070: a83e bfc0 95bd 4fc4 a340 64b7 8434 4d39
00000080: d0c2 083c 73a9 4242 02b2 2d37 e13f 1e39
00000090: 3dbb 7a3c 7bbf d434 bec4 94c2 f538 f93d
000000a0: de39 0bba b338 0838 36bc ce40 45c1 5f40

arith.constant25 f2 [22]
0.782 1.304 0.187 0.628 1.352 1.514 0.4102 0.4268
1.159 0.7373 0.3618 1.038 1.211 0.4958 0.4316 0.4634
1.06 3.088 0.7817 12.836 1.227 2.717
00000000: 423a 373d fc31 0639 683d 0e3e 9036 d436
00000010: a33c e639 ca35 273c d83c ef37 e836 6a37
00000020: 3d3c 2d42 413a 6b4a e83c 6f41

arith.constant26 f2 [22]
-0.4375 2.314 6.39 2.953 3.32 2.371 -1.319 4.36
0.8633 2.637 3.068 -0.8994 1.426 -3.352 4.508 3.738
3.66 -13.14 1.08 -0.8384 -3.19 -12.85
00000000: 00b7 a140 6446 e841 a442 be40 47bd 5c44
00000010: e83a 4641 2342 32bb b43d b4c2 8244 7a43
00000020: 5243 92ca 523c b5ba 61c2 6dca

arith.constant27 f2 [32]
0.0 0.0 0.0 0.0 0.0 0.0 0.0 0.0
0.0 0.0 0.0 0.0 0.0 0.0 0.0 0.0
0.0 0.0 0.0 0.0 0.0 0.0 0.0 0.0
0.0 0.0 0.0 0.0 0.0 0.0 0.0 0.0
00000000: 0000 0000 0000 0000 0000 0000 0000 0000
00000010: 0000 0000 0000 0000 0000 0000 0000 0000
00000020: 0000 0000 0000 0000 0000 0000 0000 0000
00000030: 0000 0000 0000 0000 0000 0000 0000 0000

arith.constant28 f2 [32, 3, 3, 3]
-1.071 -0.529 -0.4065 -2.68 -3.51 -1.212 3.613 3.77
1.667 -1.788 -1.505 -0.563 -4.816 -6.414 -2.715 6.402
7.637 3.346 -0.315 0.002504 -0.4294 -2.434 -3.172 -1.792
3.04 3.61 1.755 1.734 1.82 0.8887 4.816 6.043
3.084 2.924 3.576 1.867 -1.233 -1.067 -0.2998 -2.764
-3.861 -1.749 -2.057 -2.578 -1.259 -0.644 -0.08527 -0.3198
-1.704 -2.484 -1.37 -1.275 -1.359 -0.9526 0.3506 0.1952
0.2047 0.4167 0.2551 0.1481 0.2284 0.1531 0.2212 0.6855
0.4695 0.319 0.5176 0.5166 0.3022 0.2402 0.2666 0.3005
0.558 0.2676 0.2664 0.375 0.4285 0.2983 0.362 0.283
0.3025 -0.0 0.0 -0.0 -0.0 0.0 -0.0 -0.0
0.0 -0.0 -0.0 0.0 0.0 -0.0 0.0 -0.0
-0.0 0.0 -0.0 -0.0 0.0 -0.0 -0.0 0.0
-0.0 -0.0 0.0 -0.0 -1.126 0.3225 0.6787 -1.774
0.0627 1.544 -1.387 0.1844 0.962 -1.805 -0.1462 1.815
-2.152 -0.2815 2.125 -2.15 -0.04703 1.968 -1.368 0.05173
1.279 -2.053 -0.0766 1.996 -1.673 -0.09515 1.585 -0.0
-0.0 0.0 -0.0 -0.0 -0.0 -0.0 -0.0 -0.0
-0.0 -0.0 0.0 -0.0 -0.0 -0.0 -0.0 -0.0
-0.0 -0.0 -0.0 0.0 -0.0 -0.0 -0.0 -0.0
-0.0 -0.0 -1.273 0.0505 -0.1309 0.2576 6.086 4.465
-1.782 1.53 1.419 0.9736 0.4214 -0.1752 2.223 1.42
-0.9624 0.3987 0.1731 -0.541 -0.8433 0.2883 0.4204 0.854
0.349 -1.221 0.8813 1.014 -0.684 -7.293 1.49 2.357
-5.367 -1.999 2.443 -11.57 4.535 4.434 -6.336 1.909
3.312 22.0 -9.51 -9.94 6.027 -3.846 -2.031 -10.164
3.256 4.992 16.64 -10.24 -7.184 6.242 -3.174 -2.822
1.127 -0.9487 0.1086 1.614 -1.786 0.01461 0.4941 -1.049
0.7573 1.457 -1.589 -0.006588 2.514 -1.965 -0.634 1.153
-1.87 0.617 0.0354 -0.718 0.5073 1.158 -1.62 0.4934
-0.002502 -1.137 0.8477 1.879 2.479 1.089 2.316 2.824
1.349 -3.863 -5.496 -2.703 1.757 2.201 0.8203 3.53
00000000: 49bc 3bb8 81b6 5cc1 05c3 d9bc 3a43 8a43
00000010: ab3e 27bf 05be 81b8 d1c4 6ac6 6ec1 6746
00000020: a347 b142 0ab5 2119 dfb6 dec0 58c2 2bbf
00000030: 1442 3843 053f f03e 483f 1c3b d144 0b46
00000040: 2b42 d941 2743 783f efbc 45bc ccb4 87c1
00000050: b9c3 ffbe 1dc0 28c1 09bd 27b9 75ad 1eb5
00000060: d1be f8c0 7bbd 1abd 70bd 9fbb 9c35 3f32
00000070: 8d32 ab36 1534 bd30 4f33 e630 1433 7c39
00000080: 8337 1b35 2438 2238 d634 b033 4434 cf34
00000090: 7738 4834 4334 0036 db36 c634 cb35 8734
000000a0: d734 0080 0000 0080 0080 0000 0080 0080
000000b0: 0000 0080 0080 0000 0000 0080 0000 0080
000000c0: 0080 0000 0080 0080 0000 0080 0080 0000
000000d0: 0080 0080 0000 0080 81bc 2935 6e39 19bf
000000e0: 032c 2d3e 8cbd e731 b23b 38bf aeb0 433f
000000f0: 4ec0 81b4 4040 4dc0 05aa df3f 79bd 9f2a
00000100: 1e3d 1bc0 e7ac fc3f b1be 17ae 573e 0080
00000110: 0080 0000 0080 0080 0080 0080 0080 0080
00000120: 0080 0080 0000 0080 0080 0080 0080 0080
00000130: 0080 0080 0080 0000 0080 0080 0080 0080
00000140: 0080 0080 18bd 772a 30b0 1f34 1646 7744
00000150: 21bf 1f3e ad3d ca3b be36 9bb1 7240 ae3d
00000160: b3bb 6136 8a31 54b8 bfba 9d34 ba36 d53a
00000170: 9635 e2bc 0d3b 0e3c 79b9 4bc7 f63d b740
00000180: 5ec5 ffbf e340 c9c9 8944 6f44 56c6 a33f
00000190: a042 804d c1c8 f8c8 0746 b1c3 10c0 15c9
000001a0: 8342 fe44 294c 1fc9 2fc7 3e46 59c2 a5c1
000001b0: 823c 97bb f32e 753e 25bf 7b23 e837 32bc
000001c0: 0f3a d43d 5bbe bf9e 0741 dcbf 12b9 9d3c
000001d0: 7bbf f038 8828 beb9 0f38 a23c 7bbe e537
000001e0: 2099 8cbc c83a 843f f540 5b3c a240 a641
000001f0: 653d bac3 7fc5 68c1 073f 6740 903a 0f43

arith.constant29 f2 [11]
0.0 0.0 0.0 0.0 0.0 0.0 0.0 0.0
0.0 0.0 0.0
00000000: 0000 0000 0000 0000 0000 0000 0000 0000
00000010: 0000 0000 0000

arith.constant30 f2 [11, 1, 1, 32]
-1.281 0.1072 -0.1858 -0.0 -0.1021 -0.0 -0.055 0.1655
0.213 0.603 -0.1531 -0.4077 -0.10254 -0.10724 -0.0 0.2412
0.0 -0.0 -0.0587 0.591 0.251 0.1335 0.0708 -0.1519
0.09644 0.259 -1.659 0.1737 -0.2173 -0.6094 0.0 -0.157
0.1912 0.3025 -0.01558 0.0 0.00821 0.0 0.0115 -0.05988
-0.002363 -0.5767 0.012886 0.01245 0.01496 0.0179 -0.0 0.003733
0.0 0.0 -0.5566 0.0301 -0.04102 0.00426 -0.007683 0.1001
0.0387 0.088 -0.4636 -0.01191 0.00883 -0.2375 -0.0 -0.5303
-0.02942 0.00967 -0.002129 -0.0 0.01102 0.0 -0.04028 -0.0582
-0.09564 0.02966 0.002129 0.02373 -0.0701 0.08514 0.0 0.01253
-0.0 0.0 -0.2695 0.007137 -0.0774 -0.02689 -0.1093 -0.7964
0.2246 0.05505 -0.008766 -0.02892 -0.003994 0.11676 0.0 -0.007965
0.00439 0.003134 -0.0479 -0.0 0.01881 -0.0 -0.0172 0.07855
0.2262 0.00856 0.313 0.1865 -0.01228 -0.01113 -0.0 -0.010864
-0.0 0.0 -0.007782 -0.002163 0.0956 0.06604 0.1958 0.01291
-0.03119 -0.0276 -0.002596 0.00893 0.092 -0.01379 -0.0 -0.014046
-0.013954 -1.099 -0.007374 -0.0 -0.0054 -0.0 -0.06964 0.03078
0.004787 0.09937 -0.038 -0.0775 0.05606 -0.0809 -0.0 -0.04086
0.0 0.0 0.03894 0.06744 0.0717 0.01566 -0.01295 0.823
-1.157 0.05234 -0.003376 0.07434 -0.04282 -0.01982 0.0 0.7603
-0.003084 0.01923 0.0715 -0.0 0.04526 -0.0 -0.01333 0.02524
-0.1926 0.05902 -0.2213 -0.1159 -0.006233 -0.002098 -0.0 -0.03317
-0.0 -0.0 -0.0513 0.05597 0.000678 -0.0505 -0.0907 0.04
-0.106 0.06027 0.01359 -0.02493 -0.0828 0.04947 -0.0 0.03146
-0.662 0.2299 0.01588 -0.0 -0.05716 -0.0 -0.007153 -0.1338
0.00871 0.2356 -0.069 0.01918 0.0497 -0.0684 -0.0 0.173
-0.0 0.0 0.01011 -0.4253 0.03595 -0.04172 0.0448 0.1775
-0.2568 -0.03906 0.1309 -0.04916 -0.04465 -0.1162 -0.0 -0.315
0.304 0.204 -0.02214 0.0 -0.02422 0.0 0.05945 -0.2401
-0.1447 -0.726 0.03018 0.1814 0.0703 0.03076 0.0 0.05093
0.0 0.0 0.1326 -0.629 -0.22 -0.09467 -0.1301 -0.2356
0.2605 0.1843 0.3723 -0.1257 0.08264 -0.1808 0.0 -0.2028
00000000: 20bd dc2e f2b1 0080 89ae 0080 0aab 4c31
00000010: d132 d338 e6b0 86b6 90ae ddae 0080 b833
00000020: 0000 0080 83ab ba38 0434 4630 882c dcb0
00000030: 2c2e 2534 a3be 8f31 f4b2 e0b8 0000 06b1
00000040: 1e32 d734 faa3 0000 3420 0000 e321 aaab
00000050: d798 9db8 9922 6022 a923 9524 0080 a51b
00000060: 0000 0000 74b8 b527 40a9 5d1c de9f 682e
00000070: f428 a22d 6bb7 19a2 8520 9ab3 0080 3eb8
00000080: 88a7 f320 5c98 0080 a421 0000 28a9 73ab
00000090: 1fae 9827 5c18 1326 7dac 732d 0000 6a22
000000a0: 0080 0000 50b4 4f1f f4ac e2a6 ffae 5fba
000000b0: 3033 0c2b 7da0 67a7 179c 792f 0000 14a0
000000c0: 7f1c 6b1a 22aa 0080 d124 0080 67a4 072d
000000d0: 3d33 6220 0235 f831 4aa2 b3a1 0080 90a1
000000e0: 0080 0000 f89f 6e98 1e2e 3a2c 4432 9c22
000000f0: fca7 11a7 5199 9220 e32d 0fa3 0080 31a3
00000100: 25a3 65bc 8d9f 0080 889d 0080 75ac e127
00000110: e71c 5c2e dda8 f6ac 2d2b 2dad 0080 3ba9
00000120: 0000 0000 fc28 512c 972c 0224 a1a2 963a
00000130: a1bc b32a ea9a c22c 7ba9 13a5 0000 153a
00000140: 519a ec24 932c 0080 cb29 0080 d3a2 7626
00000150: 2ab2 8e2b 15b3 6baf 629e 4c98 0080 3fa8
00000160: 0080 0080 91aa 2a2b 8e11 77aa cead 1f29
00000170: c9ae b72b f522 62a6 4dad 552a 0080 0728
00000180: 4cb9 5b33 1124 0080 51ab 0080 539f 48b0
00000190: 7620 8a33 6aac e924 5d2a 61ac 0080 8931
000001a0: 0080 0000 2d21 ceb6 9a28 57a9 bc29 ae31
000001b0: 1cb4 00a9 3030 4baa b7a9 70af 0080 0ab5
000001c0: dd34 8732 aba5 0000 33a6 0000 9c2b afb3
000001d0: a1b0 cfb9 ba27 ce31 802c e027 0000 852a
000001e0: 0000 0000 3e30 08b9 0ab3 0fae 2ab0 8ab3
000001f0: 2b34 e631 f535 06b0 4a2d c9b1 0000 7db2

arith.constant31 f2 [1, 5, 5, 11]
-0.1069 -0.0543 -0.004684 0.0462 0.04166 -0.034 -0.004314 0.02124
0.02917 -0.05255 0.01437 0.2742 -0.0716 0.01814 0.01525 0.0828
-0.01366 -0.10876 -0.2534 0.132 -0.109 0.006416 -0.3726 -0.04086
0.002735 0.08295 0.09955 -0.06235 -0.02748 0.2234 -0.1602 -0.09595
0.03714 0.1508 -0.12213 -0.09106 0.05612 0.1151 -0.05414 0.01457
0.04858 0.008736 -0.0652 0.02539 -0.05374 -0.09985 -0.002964 0.0423
0.0328 -0.015366 0.01793 -0.015144 -0.0418 -0.08936 0.019 0.267
-0.1576 0.04318 -0.003513 0.06097 -0.1428 -0.1996 0.03912 0.1477
-0.1842 0.001645 -0.656 -0.2725 -0.06854 0.10925 0.222 -0.136
-0.7017 0.6646 0.1647 -0.3723 0.0291 0.2424 -0.314 -0.282
0.111 0.4285 -0.1085 0.698 -1.093 -0.8647 -0.459 0.01547
0.1005 0.003994 -0.1536 -0.0747 0.1284 -0.01291 0.1304 0.3037
0.3323 -0.1843 -0.05322 0.03415 -0.0986 0.0179 -0.03735 0.01984
-0.0775 0.01109 0.0843 0.1451 -0.0717 -0.02191 -0.208 -0.1624
-0.08875 -0.239 0.0764 0.473 -0.0478 -0.10266 -0.12476 -0.1278
-0.087 -0.087 -0.3887 0.1713 -0.303 0.4146 0.585 1.174
-0.4958 -0.9287 -0.3386 -0.3916 0.9277 -0.6904 0.759 -0.536
0.625 0.4905 0.3003 1.343 1.593 -0.7607 -0.55 -0.592
-0.3416 0.68 -0.3247 0.2866 0.3562 -0.6787 -0.596 -0.02693
-0.3584 -0.1716 -0.07513 -0.06757 0.1815 -0.2644 0.0925 0.4204
-0.0887 -0.05682 -0.1126 -0.04623 0.08746 0.01715 0.00517 0.10254
0.2064 -0.03674 -0.2993 0.118 0.05774 0.01839 -0.1322 0.0835
0.35 -0.1087 -0.09735 0.1808 0.0971 -0.377 -0.1218 0.004253
0.41 -0.06744 0.5605 -0.594 -0.4055 -0.7427 0.3328 0.371
-0.2279 -0.958 -0.348 -0.3193 -0.158 1.063 0.1257 -0.2886
-0.863 0.5156 0.2175 -0.3677 0.3965 0.2477 -0.3562 -0.2068
0.4985 0.0759 -0.03937 -0.3203 0.3206 0.05374 -0.208 -0.01177
0.03207 -0.0359 -0.0946 0.0153 -0.0175 0.00478 -0.01239 0.0689
-0.001921 -0.04163 0.0076 0.01248 -0.03284 -0.02707 -8.44e-05 0.0675
-0.05438 -0.02742 -0.01894 0.007362 -0.00822 -0.0644 0.11896 0.10706
0.02682 -0.179 -0.171 -0.04797 0.2476 -0.03046 0.003881 -0.0342
0.0446 -0.1048 -0.014435 0.03387 -0.6294 0.1111 -0.04977 0.3643
00000000: d7ae f3aa cc9c ea29 5529 5aa8 6b9c 7025
00000010: 7827 baaa 5c23 6334 95ac a524 cf23 4d2d
00000020: fea2 f6ae 0eb4 3930 faae 921e f6b5 3ba9
00000030: 9a19 4f2d 5f2e fbab 09a7 2633 20b1 24ae
00000040: c128 d330 d1af d4ad 2f2b 5e2f eeaa 7623
00000050: 382a 7920 2cac 8026 e1aa 64ae 129a 6a29
00000060: 3328 dea3 9724 c1a3 5aa9 b8ad dd24 4634
00000070: 0bb1 8729 329b ce2b 92b0 63b2 0229 ba30
00000080: e5b1 bd16 3fb9 5cb4 63ac fe2e 1b33 5ab0
00000090: 9db9 5139 4531 f5b5 7327 c233 06b5 83b4
000000a0: 1b2f db36 f2ae 9639 5fbc ebba 58b7 ec23
000000b0: 6f2e 171c eab0 c8ac 1c30 9ca2 2c30 dc34
000000c0: 5135 e6b1 d0aa 5f28 4fae 9524 c8a8 1425
000000d0: f6ac ae21 652d a530 97ac 9ca5 a8b2 32b1
000000e0: aead a6b3 e42c 9137 1eaa 92ae fcaf 17b0
000000f0: 91ad 91ad 38b6 7b31 d9b4 a236 ae38 b23c
00000100: efb7 6ebb 6bb5 44b6 6c3b 86b9 123a 4ab8
00000110: 0039 d937 ce34 5f3d 5f3e 16ba 66b8 bcb8
00000120: 77b5 7139 32b5 9634 b335 6eb9 c5b8 e5a6
00000130: bcb5 7eb1 cfac 53ac cf31 3bb4 ec2d ba36
00000140: adad 46ab 35af eba9 992d 6424 4b1d 902e
00000150: 9b32 b4a8 cab4 8d2f 642b b524 3bb0 582d
00000160: 9a35 f5ae 3bae c931 372e 08b6 ccaf 5b1c
00000170: 8f36 51ac 7c38 c1b8 7db6 f1b9 5335 f035
00000180: 4bb3 aabb 91b5 1cb5 0eb1 413c 0630 9eb4
00000190: e7ba 2038 f632 e2b5 5836 ed33 b3b5 9eb2
000001a0: fa37 dc2c 0aa9 20b5 2135 e12a a8b2 07a2
000001b0: 1b28 98a8 0eae d523 7ba4 e51c 58a2 692c
000001c0: de97 54a9 c81f 6422 34a8 eea6 8885 522c
000001d0: f6aa 05a7 d9a4 8a1f 35a0 1fac 9d2f da2e
000001e0: de26 bab1 79b1 24aa ec33 cca7 f31b 61a8
000001f0: b529 b5ae 64a3 5628 09b9 1c2f 5faa d435

arith.constant32 f2 [11, 1, 1, 11]
0.1598 0.0644 0.077 0.005016 -0.1052 -0.01758 0.7534 0.05743
-1.289 0.04062 0.10675 0.4214 -1.25e-06 0.02525 -0.02997 -0.001037
0.03174 0.166 -1.342 0.0793 -0.005867 0.08936 -0.01923 0.01773
0.76 0.05597 0.03525 -0.2194 -0.01657 -0.04288 0.04694 0.0479
0.6943 -0.008865 -0.4587 -0.1614 -0.04227 0.725 0.1228 -0.06003
0.03284 0.01572 -0.4512 -0.0886 0.5903 -0.007713 -0.06323 0.01889
-0.0261 -0.05765 0.04108 1.422 0.1968 -0.04465 -0.011 -0.4631
0.02118 0.352 0.237 -0.0672 -0.3528 0.616 0.006527 0.9653
0.02538 -0.1964 0.01729 0.01532 -1.504 -0.2888 -0.03842 0.7915
0.03238 -0.0243 0.005512 0.08594 0.672 0.274 0.067 -0.2244
-0.272 -0.03099 0.3508 -1.492 -0.03934 0.3538 0.04236 0.2683
0.02806 -0.002169 0.575 0.3755 -0.00846 -0.508 0.1093 -0.011375
-0.01012 0.0402 -1.206 0.02266 0.8223 -0.0389 7.74e-05 0.488
0.10284 0.00912 0.04105 0.0404 0.759 -0.04614 0.0 0.0
0.0 -0.0 -0.0 -0.0 0.0 -0.0 -0.0 -0.0
0.0
00000000: 1d31 1f2c ee2c 231d bcae 80a4 073a 5a2b
00000010: 28bd 3329 d52e be36 1580 7726 aca7 3f94
00000020: 1028 5031 5ebd 132d 029e b82d eca4 8a24
00000030: 143a 2a2b 8328 05b3 3ea4 7da9 022a 222a
00000040: 8e39 8aa0 57b7 2ab1 69a9 cd39 dc2f afab
00000050: 3428 0624 38b7 acad b938 e69f 0cac d624
00000060: aea6 61ab 4229 b03d 4c32 b7a9 a2a1 69b7
00000070: 6c25 a235 9633 4dac a5b5 ee38 af1e b93b
00000080: 7f26 49b2 6d24 d823 04be 9fb4 eba8 553a
00000090: 2528 39a6 a51d 802d 6039 6234 4a2c 2eb3
000000a0: 5ab4 efa7 9d35 f8bd 09a9 a935 6c29 4b34
000000b0: 2f27 7198 9a38 0236 55a0 10b8 ff2e d3a1
000000c0: 2ea1 2529 d3bc cd25 943a fba8 1305 cf37
000000d0: 952e ab20 4129 2c29 123a e8a9 0000 0000
000000e0: 0000 0080 0080 0080 0000 0080 0080 0080
000000f0: 0000

arith.constant33 f2 [1, 5, 5, 11]
-0.05594 -0.02635 0.01924 0.02167 0.0068 -0.02951 0.002136 0.02641
0.015076 -0.1038 -0.0 0.002567 0.0204 0.016 -0.139 0.01344
0.02002 -0.001335 -0.014854 -0.014565 0.0632 -0.0 0.02588 0.0195
-0.00813 0.02 -0.02904 0.02629 -0.02715 -0.05026 -0.1037 0.0752
-0.0 0.005135 -0.02992 0.0167 0.007442 -0.01229 0.011314 -0.0704
-0.0734 -0.1185 0.04758 -0.0 -0.00191 -0.02219 0.01735 0.007545
0.01791 -0.0104 -0.04172 -0.0358 -0.02327 -0.05856 -0.0 0.02951
0.0372 0.10175 -0.04642 -0.04138 -0.01994 -0.083 0.00688 -0.0491
0.1189 -0.0 -0.0713 -0.2057 -0.36 -0.13 0.1019 -0.006668
0.2666 0.02437 0.2394 0.0657 -0.0 -0.2896 -0.2186 -1.117
0.1016 0.1377 -0.3037 0.766 0.3477 0.7153 -0.2778 -0.0
-0.04016 -0.0781 -0.00542 0.01677 -0.0201 -0.08105 0.0542 0.10614
0.1554 0.1665 -0.0 0.05017 -0.03009 0.00709 -0.0343 -0.02477
0.05234 0.004097 -0.0762 0.05353 0.00243 -0.0 0.03394 0.05194
0.0675 -0.1324 -0.05392 -0.00421 -0.0728 -0.0449 -0.03613 0.1539
-0.0 -0.2445 -0.2534 -0.2795 -0.05444 0.1909 -0.2374 0.367
0.2269 0.3132 -0.1593 -0.0 -1.319 -1.146 -1.069 2.146
1.045 -1.157 1.031 1.229 1.19 -1.631 -0.0 -0.2155
-0.1765 -0.1841 0.01926 0.2041 -0.34 0.126 0.352 0.204
-0.09216 0.0 0.05597 -0.02174 0.06506 -0.1686 0.02841 0.01122
-0.10583 -0.03384 -0.0736 0.0906 0.0 0.0386 -0.02388 -0.004295
-0.04565 0.05118 0.0665 -0.0003154 -0.07526 -0.00276 0.006668 -0.0
-0.08435 -0.02641 -0.02641 0.0662 0.05124 -0.03583 0.04883 0.04254
-0.01971 0.001695 -0.0 -0.2219 -0.36 -0.01495 0.1885 0.4355
-0.3372 0.02725 0.3152 0.0746 -0.438 -0.0 -0.0871 -0.318
0.02542 -0.03073 0.374 0.001191 -0.04828 0.056 -0.02676 0.05353
-0.0 -0.04254 0.02632 -0.02858 -0.08484 -0.01026 0.03043 -0.0094
0.0001166 -0.02914 0.1604 0.0 -0.01557 -0.01862 0.002329 0.04242
0.001713 -0.01111 0.02264 -0.003864 -0.02219 -0.0692 -0.0 0.0556
-0.0228 0.005486 0.0513 0.006348 0.04077 -0.04498 -0.07007 -0.06525
0.10724 0.0 0.0048 0.00773 -0.0722 0.01117 -0.02184 0.05664
0.0362 -0.04147 0.028 0.0974 -0.0 -0.01249 -0.05533 0.0118
00000000: 29ab bfa6 ed24 8c25 f71e 8ea7 6018 c326
00000010: b823 a5ae 0080 4219 3925 1924 73b0 e222
00000020: 2025 7895 9ba3 75a3 0b2c 0080 a026 fe24
00000030: 2aa0 1f25 6fa7 bb26 f3a6 6faa a3ae d02c
00000040: 0080 421d a9a7 4624 9f1f 4ba2 cb21 81ac
00000050: b3ac 96af 172a 0080 d397 aea5 7124 ba1f
00000060: 9624 53a1 57a9 95a8 f5a5 7fab 0080 8e27
00000070: c328 832e f1a9 4ca9 1ba5 50ad 0c1f 49aa
00000080: 9c2f 0080 90ac 95b2 c3b5 29b0 862e d49e
00000090: 4434 3d26 a933 342c 0080 a2b4 ffb2 78bc
000000a0: 812e 6830 dcb4 213a 9035 b939 72b4 0080
000000b0: 24a9 00ad 8d9d 4b24 25a5 30ad f02a cb2e
000000c0: f930 5431 0080 6c2a b4a7 431f 64a8 57a6
000000d0: b32a 321c e0ac da2a fa18 0080 5828 a62a
000000e0: 522c 3db0 e7aa 509c a9ac bfa9 a0a8 ed30
000000f0: 0080 d3b3 0eb4 79b4 f8aa 1c32 99b3 df35
00000100: 4333 0335 19b1 0080 47bd 96bc 47bc 4b40
00000110: 2e3c a1bc 203c ea3c c33c 86be 0080 e5b2
00000120: a6b1 e4b1 ee24 8832 71b5 0830 a235 8732
00000130: e6ad 0000 2a2b 91a5 2a2c 65b1 4627 bf21
00000140: c6ae 55a8 b6ac cc2d 0000 f128 1da6 669c
00000150: d8a9 8d2a 422c 2b8d d1ac a799 d41e 0080
00000160: 66ad c3a6 c3a6 3d2c 8f2a 96a8 402a 7229
00000170: 0ca5 f116 0080 1ab3 c3b5 a8a3 0832 f836
00000180: 65b5 fa26 0b35 c62c 02b7 0080 93ad 17b5
00000190: 8226 dea7 fc35 e114 2eaa 2b2b daa6 da2a
000001a0: 0080 72a9 bd26 51a7 6ead 41a1 ca27 d0a0
000001b0: a407 76a7 2231 0000 f9a3 c4a4 c518 6e29
000001c0: 0417 b0a1 cc25 ea9b aea5 6eac 0080 1e2b
000001d0: d6a5 9e1d 912a 801e 3829 c2a9 7cac 2dac
000001e0: dd2e 0000 ea1c ea1f 9fac b821 97a5 402b
000001f0: a228 4fa9 2b27 3c2e 0080 65a2 15ab 0b22

arith.constant34 f2 [11, 1, 1, 11]
0.4167 0.08954 -0.0896 -0.1059 -0.1053 0.3943 0.0274 -0.3948
0.04428 0.001946 0.0 0.3696 0.09 -0.2615 -0.4517 -0.0907
0.399 0.2542 -0.3127 0.273 -0.899 0.0 0.1935 -0.1967
0.3594 0.637 0.0751 0.1508 -0.7065 -0.2429 -0.718 -0.079
0.0 -0.05612 -0.0348 -0.0365 -0.06033 0.03687 -0.0234 0.02605
0.03946 0.01168 0.02176 -0.0 -0.1066 -0.1054 -0.02516 0.2563
0.11346 -0.08276 -0.0095 0.05038 -0.01429 0.2235 0.0 -0.0269
0.01765 0.02243 -0.04776 0.00815 -0.04733 -0.05225 0.04633 -0.01793
-0.0003862 0.0 -0.082 1.279 0.1344 0.483 -1.241 -0.172
-0.1829 0.1875 -0.3235 0.2715 -0.0 0.006783 0.01802 0.10474
-0.2773 -0.01055 0.01244 -0.01653 -0.001364 -0.03363 -0.0187 -0.0
-0.283 0.02165 0.2954 -0.6377 -0.03552 -0.266 -0.0817 0.3152
-0.0486 -0.617 -0.0 0.0005226 -0.11676 0.3613 -0.1669 0.1237
-0.03087 -0.257 0.00532 -0.282 0.4275 0.0 0.03473 -0.00559
0.37 -0.1582 -0.01921 -0.0126 -0.266 -0.03119 -0.2625 0.0665
0.0
00000000: ab36 bb2d bcad c7ae bdae 4f36 0427 51b6
00000010: ab29 f917 0000 ea35 c32d 2fb4 3ab7 cead
00000020: 6236 1134 01b5 5e34 31bb 0000 3132 4bb2
00000030: c035 1939 ce2c d330 a7b9 c6b3 beb9 0ead
00000040: 0000 2fab 74a8 aca8 b9ab b828 fea5 ab26
00000050: 0d29 fb21 9225 0080 d3ae bfae 71a6 1a34
00000060: 432f 4cad dda0 732a 51a3 2733 0000 e3a6
00000070: 8524 be25 1daa 2c20 0faa b0aa ee29 97a4
00000080: 548e 0000 3fad 1e3d 4d30 ba37 f7bc 81b1
00000090: dab1 0032 2db5 5834 0080 f21e 9d24 b42e
000000a0: 70b4 67a1 5f22 3ba4 9695 4ea8 caa4 0080
000000b0: 87b4 8b25 ba34 1ab9 8ca8 42b4 3bad 0b35
000000c0: 39aa f0b8 0080 4810 79af c835 57b1 eb2f
000000d0: e7a7 1db4 731d 83b4 d736 0000 7228 b99d
000000e0: ec35 10b1 eba4 74a2 42b4 fca7 33b4 422c
000000f0: 0000

arith.constant35 f2 [1, 7, 7, 32]
0.02013 0.10406 0.0838 0.0 0.158 -0.0 0.005917 -0.1675
0.01441 0.04922 -0.03174 0.1178 0.1154 -0.004936 -0.0 0.01172
-0.0 0.0 -0.0948 0.01668 0.1267 0.07684 -0.02849 0.01637
-0.0534 0.0419 0.05106 0.06024 -0.07886 -0.001792 -0.0 -0.06213
-0.07697 0.04294 -0.03262 0.0 0.2021 -0.0 -0.003159 -0.03174
-0.01183 0.08575 -0.0236 0.1104 0.01454 0.01842 0.0 -0.001246
-0.0 0.0 -0.04895 -0.0528 0.1462 0.02383 -0.00174 0.004425
0.075 0.02197 -0.0173 0.00586 -0.04675 0.01674 -0.0 0.014565
-0.05765 -0.012794 -0.2184 0.0 0.1488 -0.0 0.01494 -0.1647
-0.0206 -0.000881 -0.01304 0.1312 -0.0759 0.01915 -0.0 0.005737
0.0 -0.0 0.1919 -0.0425 0.127 0.03082 0.02501 -0.007206
0.2354 0.02138 -0.0855 0.0129 -0.05408 -0.0352 0.0 0.3057
0.0512 -0.09503 -0.1263 0.0 0.1688 -0.0 -0.0956 -0.0287
0.0546 -0.04254 0.0187 0.1306 -0.3767 0.05112 0.0 0.0088
0.0 0.0 0.2693 0.00659 0.1117 0.07214 0.04346 -0.1096
0.611 0.0648 0.04474 -0.05072 -0.05487 -0.04816 -0.0 0.1957
-0.01177 -0.00342 -0.1224 0.0 -0.09937 -0.0 -0.01263 -0.0243
-0.02962 0.0665 -0.04358 -0.1549 -0.1356 0.02191 -0.0 -0.01863
-0.0 -0.0 0.1345 -0.03967 0.0837 -0.052 -0.02524 -0.1738
0.2434 0.03003 -0.009155 -0.0486 -0.05685 -0.03226 -0.0 -0.03516
0.007435 0.0659 -0.03284 0.0 0.115 -0.0 -0.04208 0.0731
0.000548 0.07007 -0.0372 0.095 -0.06525 0.0183 0.0 -0.03375
0.0 -0.0 0.0551 -0.04144 0.103 0.1512 0.02928 0.03372
0.02156 0.0935 -0.05984 -0.05743 -0.0557 -0.0707 0.0 -0.000969
0.03897 0.1114 0.0453 0.0 0.1171 -0.0 0.02994 0.06207
0.00462 -0.04984 0.00675 -0.005486 0.1078 -0.01248 0.0 0.001542
-0.0 -0.0 -0.0194 0.04523 0.09186 0.05658 0.03735 0.04968
-0.06696 0.09296 0.03552 -0.02011 -0.07654 -0.1093 0.0 0.004272
-0.000885 0.1088 0.01942 0.0 0.1724 -0.0 0.05264 -0.01493
0.001952 -0.03525 -0.02261 0.2822 0.0843 0.001601 0.0 -0.0643
-0.0 0.0 -0.04007 0.06256 0.12 0.1919 -0.0371 0.0835
-0.04092 0.03323 0.0009413 0.0561 -0.03143 0.04062 -0.0 0.05414
00000000: 2725 a92e 5d2d 0000 0e31 0080 0f1e 5cb1
00000010: 6123 4d2a 10a8 8a2f 632f 0e9d 0080 0022
00000020: 0080 0000 11ae 4524 0e30 eb2c 4ba7 3124
00000030: d6aa 5d29 892a b62b 0cad 5797 0080 f4ab
00000040: edac 7f29 2da8 0000 7832 0080 789a 10a8
00000050: 0fa2 7d2d 0ba6 112f 7223 b724 0000 1b95
00000060: 0080 0000 44aa c2aa ae30 1a26 2197 881c
00000070: cd2c a025 6ea4 001e fca9 4924 0080 7523
00000080: 61ab 8da2 fdb2 0000 c330 0080 a623 45b1
00000090: 46a5 3893 ada2 3330 dcac e724 0080 e01d
000000a0: 0000 0080 2432 71a9 1030 e427 6726 619f
000000b0: 8833 7925 79ad 9b22 ecaa 81a8 0000 e434
000000c0: 8e2a 15ae 0bb0 0000 6731 0080 1eae 59a7
000000d0: fd2a 72a9 ca24 2e30 07b6 8b2a 0000 8120
000000e0: 0000 0000 4f34 c01e 262f 9e2c 9029 04af
000000f0: e338 262c ba29 7eaa 06ab 2aaa 0080 4332
00000100: 07a2 019b d5af 0000 5cae 0080 77a2 39a6
00000110: 95a7 422c 94a9 f5b0 57b0 9c25 0080 c5a4
00000120: 0080 0080 4e30 14a9 5b2d a8aa 76a6 90b1
00000130: ca33 b027 b0a0 39aa 47ab 21a8 0080 80a8
00000140: 9d1f 382c 34a8 0000 5c2f 0080 63a9 ae2c
00000150: 7d10 7c2c c3a8 142e 2dac af24 0000 52a8
00000160: 0000 0080 0e2b 4ea9 982e d730 7f27 5128
00000170: 8525 fc2d a9ab 5aab 21ab 86ac 0000 f093
00000180: fd28 212f cc29 0000 7f2f 0080 aa27 f22b
00000190: bb1c 61aa e91e 9e9d e62e 64a2 0000 5116
000001a0: 0080 0080 f7a4 ca29 e12d 3e2b c828 5c2a
000001b0: 49ac f32d 8c28 26a5 e6ac ffae 0000 601c
000001c0: 4093 f72e f924 0000 8431 0080 bd2a a5a3
000001d0: ff17 83a8 caa5 8434 652d 8f16 0000 1dac
000001e0: 0080 0000 21a9 012c ae2f 2432 c0a8 582d
000001f0: 3da9 4128 b613 2e2b 06a8 3329 0080 ee2a

arith.constant36 f2 [11, 1, 1, 32]
-0.0 0.0 0.0 0.0 -0.0 0.0 -0.0 0.0
-0.0 -0.0 -0.0 -0.0 -0.0 0.0 0.0 -0.0
0.0 0.0 0.0 0.0 -0.0 -0.0 0.0 -0.0
0.0 0.0 -0.0 -0.0 0.0 0.0 0.0 0.0
0.012985 -0.04886 0.01837 0.0 -0.00815 -0.0 -0.01288 0.05487
-0.00788 -0.003403 -0.01379 -0.01454 -0.002771 0.02565 -0.0 -0.05637
-0.0 -0.0 -0.1007 -0.00317 0.02419 -0.00633 0.008446 -0.2046
0.00808 0.01582 -0.02243 -0.00916 0.00572 -0.0384 0.0 0.566
-0.1749 0.08905 0.00556 0.0 -0.01779 -0.0 0.04053 0.02742
0.01894 0.2052 0.005753 -0.02742 0.0688 -0.0776 0.0 -0.02109
-0.0 -0.0 0.04276 -0.232 -0.061 -0.0234 -0.02437 0.044
-0.02477 -0.6807 -0.1556 -0.03513 0.05215 0.643 -0.0 0.05786
-0.5806 -0.01884 -0.0234 -0.0 0.05576 -0.0 0.12384 -0.006363
0.0974 0.6973 0.06757 -0.04764 -0.102 -0.02843 -0.0 -0.1604
0.0 0.0 -0.121 -0.5996 -0.1324 -0.05878 -0.163 0.0402
-0.02483 -0.0408 -0.586 -0.275 0.02187 0.02985 0.0 0.0471
0.02803 -0.1095 -0.0684 -0.0 -0.010704 -0.0 0.2598 -0.1082
0.4507 -0.03955 0.09174 -0.347 0.1974 0.2979 0.0 0.17
0.0 0.0 -0.04678 0.01689 0.3997 -0.6333 0.1385 -0.05563
-0.1065 0.2258 0.00335 -0.01755 0.319 -0.1153 0.0 -0.02998
-0.0546 0.162 -0.1401 0.0 0.9053 0.0 -0.1886 -0.2512
0.2537 0.11914 0.2952 -0.5557 0.09503 -0.003372 -0.0 -0.1031
-0.0 0.0 0.395 0.01784 -0.1322 0.257 -0.1365 0.3457
-0.1609 -0.02791 -0.1116 -0.3125 -0.2201 0.1481 -0.0 0.0708
-0.01923 -0.5425 -0.04733 0.0 0.01397 -0.0 0.003586 0.07355
-0.002935 -0.02167 0.03732 -0.03824 0.0802 -0.004128 -0.0 0.05905
-0.0 -0.0 -0.1392 -0.03625 -0.01421 -0.005157 -0.01973 0.4731
0.3477 0.01628 -0.01126 0.03705 0.007183 -0.008026 -0.0 0.1501
-0.0002433 -0.05322 -0.04074 0.0 -0.1681 -0.0 0.01521 -0.05655
-0.02914 -0.01248 -0.1681 0.3599 -0.0425 0.02931 0.0 0.09216
-0.0 0.0 0.04303 -0.011536 0.09827 0.153 0.0632 -0.05844
0.0382 0.02307 0.0153 -0.05634 -0.02946 -0.01496 0.0 -0.01846
00000000: 0080 0000 0000 0000 0080 0000 0080 0000
00000010: 0080 0080 0080 0080 0080 0000 0000 0080
00000020: 0000 0000 0000 0000 0080 0080 0000 0080
00000030: 0000 0000 0080 0080 0000 0000 0000 0000
00000040: a622 41aa b424 0000 2ca0 0080 98a2 062b
00000050: 09a0 f89a 0fa3 72a3 ad99 9126 0080 37ab
00000060: 0080 0080 72ae 7e9a 3126 7b9e 5320 8cb2
00000070: 2320 0d24 bea5 b1a0 db1d eaa8 0000 8738
00000080: 99b1 b32d b21d 0000 8ea4 0080 3029 0527
00000090: d924 9132 e41d 05a7 672c f7ac 0000 66a5
000000a0: 0080 0080 7929 6db3 cfab fea5 3da6 a229
000000b0: 57a6 72b9 fbb0 7fa8 ad2a 2539 0080 682b
000000c0: a5b8 d3a4 fea5 0080 232b 0080 ed2f 849e
000000d0: 3c2e 9439 532c 19aa 87ae 47a7 0080 22b1
000000e0: 0000 0000 beaf ccb8 3db0 86ab 37b1 2529
000000f0: 5ba6 39a9 b0b8 66b4 9925 a427 0000 072a
00000100: 2d27 02af 61ac 0080 7ba1 0080 2834 edae
00000110: 3637 10a9 df2d 8db5 5132 c434 0000 7131
00000120: 0000 0000 fda9 5324 6536 11b9 6f30 1fab
00000130: d1ae 3a33 dc1a 7ea4 1b35 61af 0000 ada7
00000140: fdaa 2f31 7cb0 0000 3e3b 0000 09b2 05b4
00000150: 0f34 a02f b934 72b8 152e e89a 0080 99ae
00000160: 0080 0000 5236 9124 3bb0 1d34 5eb0 8835
00000170: 26b1 25a7 24af 00b5 0bb3 bd30 0080 882c
00000180: eca4 57b8 0faa 0000 2723 0080 581b b52c
00000190: 039a 8ca5 c728 e5a8 222d 3a9c 0080 8f2b
000001a0: 0080 0080 74b0 a4a8 47a3 489d 0da5 9237
000001b0: 9035 2b24 c4a1 be28 5b1f 1ca0 0080 ce30
000001c0: f98b d0aa 37a9 0000 61b1 0080 ca23 3dab
000001d0: 76a7 64a2 61b1 c235 71a9 8127 0000 e62d
000001e0: 0080 0000 8229 e8a1 4a2e e530 0b2c 7bab
000001f0: e428 e825 d523 36ab 8ba7 a9a3 0000 baa4

arith.constant37 f2 [1, 7, 7, 11]
-0.0 -0.02132 -0.004986 0.02554 -0.026 0.09863 0.00795 0.02998
-0.00538 0.02957 0.06635 -0.0 -0.05362 -0.01791 0.02359 0.018
0.09644 -0.005413 -0.1025 -0.01953 0.05978 0.02142 -0.0 -0.02057
-0.03238 0.04156 0.02925 0.02196 -0.02635 0.00288 -0.0245 0.0857
0.05615 -0.0 -0.09375 0.0238 0.04425 0.04062 -0.0879 -0.0817
0.0291 -0.03137 0.06122 0.0902 -0.0 -0.0681 0.00843 -0.009834
0.003147 -0.0727 -0.04562 0.0761 -0.02249 -0.04495 -0.001876 -0.0
-0.0325 0.01889 -0.02629 -0.01566 -0.0755 0.0494 0.0704 -0.00649
-0.05154 -0.03763 0.0 -0.04303 -0.01898 0.06143 -0.08923 0.002687
-0.0131 0.088 -0.02156 -0.1304 -0.1465 0.0 0.0644 0.02083
-0.04968 -0.00588 -0.008194 0.0244 0.014275 0.002645 0.014595 -0.00131
-0.0 0.032 0.053 -0.065 0.07886 0.00685 -0.0364 -0.02881
0.02565 0.03796 -0.002924 -0.0 0.04483 -0.02948 -0.2257 0.03378
-0.01482 -0.0164 0.0827 -0.04788 0.1556 0.0586 -0.0 -0.05075
0.03001 -0.1641 -0.0916 -0.01219 -0.1229 -0.07434 0.004223 -0.01892
-0.02359 -0.0 -0.010345 -0.012794 -0.1677 -0.2006 0.1377 -0.006508
-0.04477 -0.0443 -0.1299 -0.06107 -0.0 0.04132 0.09796 -0.1743
-0.01177 0.01228 0.0692 -0.1031 0.01634 0.04782 -0.03317 -0.0
0.02773 0.05527 -0.0192 -0.013435 -0.00831 0.04297 0.0604 -0.02585
-0.011925 -0.05212 -0.0 -0.01596 0.04547 0.01145 -0.0832 -0.01392
0.02025 -0.006405 0.0411 -0.04816 0.0332 -0.0 -0.0181 -0.002495
0.0161 0.04684 -0.02588 -0.03275 -0.07184 -0.01952 0.04553 0.1211
-0.0 0.0789 0.01833 0.1914 -0.1114 -0.02225 -0.000752 -0.01141
-0.1642 0.2391 0.2284 -0.0 0.0658 -0.0733 0.178 -0.2482
0.0435 -0.0423 0.0832 0.0668 -0.5405 -0.566 -0.0 0.009094
-0.04926 0.4023 -0.3892 0.2607 -0.0432 -0.02983 -0.0718 -0.7505
-0.7266 -0.0 -0.0192 0.008644 -0.04578 -0.2202 0.074 0.0621
-0.1575 -0.0413 -0.10944 -0.1339 -0.0 -0.0231 -0.014824 0.04346
-0.10864 -0.02974 0.07263 0.09467 0.01959 -0.0008554 0.0381 -0.0
-0.04254 0.004135 -0.02107 -0.02106 -0.004795 -0.0188 0.05875 0.06073
-0.02997 0.0221 0.0 0.03912 -0.005924 -0.0228 0.0752 0.013
0.118 -0.03394 -0.09406 0.05078 0.05038 -0.0 0.00768 -0.003483
00000000: 0080 75a5 1b9d 8a26 a8a6 502e 1220 ad27
00000010: 829d 9227 3f2c 0080 ddaa 96a4 0a26 9c24
00000020: 2c2e 8b9d 8fae 00a5 a72b 7c25 0080 44a5
00000030: 25a8 5229 7d27 9f25 bfa6 e619 46a6 7c2d
00000040: 302b 0080 00ae 1826 aa29 3329 a0ad 3bad
00000050: 7327 04a8 d62b c62d 0080 5cac 5120 09a1
00000060: 721a a7ac d7a9 df2c c2a5 c1a9 af97 0080
00000070: 29a8 d624 bba6 02a4 d5ac 532a 812c a59e
00000080: 99aa d1a8 0000 82a9 dca4 dd2b b6ad 8119
00000090: b5a2 a22d 85a5 2cb0 b0b0 0000 1f2c 5525
000000a0: 5caa 059e 32a0 3f26 4f23 6b19 7923 5e95
000000b0: 0080 1928 c92a 29ac 0c2d 041f a9a8 60a7
000000c0: 9126 dc28 fd99 0080 bd29 8ca7 39b3 5328
000000d0: 96a3 33a4 4b2d 21aa fb30 802b 0080 7faa
000000e0: af27 40b1 ddad 3ea2 deaf c2ac 531c d8a4
000000f0: 0aa6 0080 4ca1 8da2 5eb1 6bb2 6830 aa9e
00000100: bba9 aca9 28b0 d1ab 0080 4a29 452e 94b1
00000110: 07a2 4a22 6e2c 99ae 2f24 1f2a 3fa8 0080
00000120: 1927 132b eaa4 e1a2 41a0 8029 bb2b 9ea6
00000130: 1ba2 acaa 0080 16a4 d229 dd21 53ad 21a3
00000140: 2f25 8f9e 4329 2aaa 4028 0080 a2a4 1c99
00000150: 1f24 ff29 a0a6 31a8 99ac ffa4 d429 c02f
00000160: 0080 0d2d b124 2032 21af b2a5 2992 d8a1
00000170: 41b1 a733 4f33 0080 362c b1ac b231 f1b3
00000180: 9129 6aa9 532d 462c 53b8 87b8 0080 a820
00000190: 4eaa 7036 3ab6 2c34 88a9 a3a7 98ac 01ba
000001a0: d0b9 0080 eaa4 6d20 dca9 0cb3 bc2c f32b
000001b0: 0ab1 49a9 01af 49b0 0080 eaa5 97a3 9029
000001c0: f4ae 9da7 a62c 0f2e 0425 0293 e028 0080
000001d0: 72a9 3c1c 65a5 64a5 e99c d0a4 852b c62b
000001e0: aca7 a825 0000 0229 119e d6a5 d02c a822
000001f0: 8d2f 58a8 05ae 802a 732a 0080 dd1f 229b

arith.constant38 f2 [11, 1, 1, 11]
-0.0 -0.0486 -0.02524 0.0622 0.006355 -0.01819 0.04385 0.01816
0.02208 0.01953 -0.004723 -0.0 0.0936 0.3003 0.1417 0.11816
0.11664 -0.546 -0.1381 -0.03232 0.04968 -0.1875 0.0 0.2517
-0.07074 -0.1637 -0.002722 -0.12305 -0.508 0.0776 -0.1877 0.00857
-0.0778 -0.0 -0.0945 0.434 -0.2947 2.957 -0.0868 -0.1498
-3.168 0.448 -3.326 1.457 0.0 -0.09033 -0.196 -0.3284
-0.0788 -0.02473 -0.04706 0.02377 -0.1296 -0.02922 -0.01947 0.0
0.04318 0.2622 -0.2576 -0.541 1.558 -0.012054 -0.502 0.1399
1.047 -2.648 -0.0 0.1783 0.03516 -0.2588 -0.1738 -0.086
-0.4153 0.04672 -0.01689 0.05588 0.03955 -0.0 0.07117 0.562
0.0003245 -0.1799 -0.0476 0.00439 0.06046 0.2878 -0.0906 -0.0825
0.0 0.333 -0.748 0.02837 0.09906 0.04904 0.00717 -0.04858
0.0975 -0.03845 -0.067 0.0 0.4246 -0.0986 -0.31 0.04837
0.10126 0.4697 -0.079 0.4504 -0.0658 -0.0607 -0.0 0.3916
0.1083 0.10376 -0.02141 0.02626 0.277 -0.007504 -0.00424 -0.01974
-0.002125
00000000: 0080 39aa 76a6 f62b 821e a8a4 9d29 a624
00000010: a725 0025 d69c 0080 fe2d ce34 8930 902f
00000020: 772f 5eb8 6bb0 23a8 5c2a 00b2 0000 0734
00000030: 87ac 3db1 9399 e0af 10b8 f72c 02b2 6320
00000040: fbac 0080 0cae f236 b7b4 ea41 8ead cbb0
00000050: 56c2 2b37 a7c2 d43d 0000 c8ad 46b2 41b5
00000060: 0bad 55a6 06aa 1626 26b0 7ba7 fca4 0000
00000070: 8729 3234 1fb4 54b8 3b3e 2ca2 04b8 7a30
00000080: 303c 4cc1 0080 b531 8028 24b4 90b1 81ad
00000090: a5b6 fb29 53a4 272b 1029 0080 8e2c 7f38
000000a0: 510d c2b1 18aa 7f1c bd2b 9b34 ccad 48ad
000000b0: 0000 5435 fcb9 4327 572e 472a 581f 38aa
000000c0: 3d2e eca8 4aac 0000 cb36 4fae f6b4 312a
000000d0: 7b2e 8437 0ead 3537 36ac c5ab 0080 4436
000000e0: ee2e a42e 7ba5 b926 6f34 af9f 579c 0ea5
000000f0: 5a98

arith.constant39 f2 [1, 3, 3, 11]
-0.04218 0.010345 -0.007305 -0.0698 0.1298 -0.0876 0.06064 0.1918
0.1261 -0.006935 0.03238 0.2356 -0.2473 0.1252 -0.2942 0.04938
0.3826 -0.152 0.06866 0.03207 -0.2172 0.3342 0.114 -0.02214
-0.0642 -0.00799 0.1749 -0.011635 -0.1396 0.1923 0.03888 -0.02243
0.03473 0.2837 -0.1545 0.107 0.10724 0.1677 -0.0788 -0.0849
0.04492 -0.2048 -0.2239 0.3723 1.022 0.399 0.578 0.2546
1.038 -0.2308 -0.4888 -0.9336 -0.756 -1.008 1.164 0.318
-0.0614 0.1537 0.0722 0.05762 -0.1377 -0.03595 0.08307 -0.1489
-0.1553 0.2805 0.0988 -0.0431 -0.04312 0.0558 0.07263 -0.1071
-0.03333 0.187 0.0363 0.1196 -0.01787 0.2747 -0.2686 0.10254
-0.1841 0.09247 0.2415 -0.1002 0.05872 0.04672 -0.01962 0.167
-0.03625 -0.04092 -0.09296 -0.05655 0.1021 0.0907 0.06384 0.2438
0.072 0.04617 -0.0326
00000000: 66a9 4c21 7b9f 78ac 2730 9bad c32b 2332
00000010: 0930 1a9f 2528 8a33 eab3 0230 b5b4 522a
00000020: 1f36 ddb0 652c 1b28 f3b2 5935 4c2f aba5
00000030: 1cac 17a0 9931 f5a1 78b0 2732 fa28 bea5
00000040: 7228 8a34 f2b0 d92e dd2e 5e31 0bad 6fad
00000050: c029 8eb2 2ab3 f535 173c 6236 a038 1334
00000060: 273c 63b3 d2b7 78bb 0cba 08bc a83c 1735
00000070: dcab eb30 9f2c 602b 68b0 9aa8 512d c4b0
00000080: f8b0 7d34 532e 84a9 85a9 242b a62c dbae
00000090: 44a8 fc31 a528 a82f 93a4 6534 4cb4 902e
000000a0: e4b1 eb2d ba33 6aae 842b fb29 06a5 5831
000000b0: a4a8 3da9 f3ad 3dab 892e ce2d 162c cd33
000000c0: 9c2c e929 2ca8

arith.constant40 f2 [11, 1, 1, 11]
-0.1835 0.0829 -0.01477 0.06125 0.4272 -0.03833 0.008644 0.03488
0.02919 -0.01726 -0.0905 0.2998 -0.546 -0.0716 0.1432 0.4077
0.03735 0.08527 0.4448 -0.0363 0.2993 0.2002 0.3115 0.0941
-0.4387 -0.01768 -0.1137 -0.1982 -0.532 -0.2932 0.12024 -0.0996
-0.01482 -0.0 -0.0 0.0 -0.0 0.0 0.0 0.0
0.0 -0.0 0.0 -0.0 0.01288 0.2644 0.2041 -0.01415
-0.1565 0.02733 -0.2089 -0.4146 -0.1451 0.11316 1.185 0.01283
-0.01456 -0.004776 0.04645 -0.03525 -0.003937 -0.02455 0.04092 0.02791
-0.01842 0.01539 0.02565 -0.0079 -0.01555 -0.04102 0.0532 0.0682
-0.002184 0.05606 0.02048 0.255 -0.2922 -0.1915 -0.0827 -0.006668
-0.1378 0.345 0.1708 -0.01686 0.3496 -0.01421 0.0338 -0.275
-0.3513 0.01131 -0.1669 -0.002342 -0.1036 -0.04218 -0.04395 0.0763
-0.348 0.01333 -0.01566 1.134 0.2507 0.02957 -0.1299 0.268
0.0826 0.1453 -0.2593 -0.4587 -0.0696 -0.037 -0.4329 -0.2339
0.2566 -0.0694 0.5024 0.3882 0.2076 0.3157 -0.01318 -0.2356
0.5757
00000000: dfb1 4e2d 90a3 d72b d636 e8a8 6d20 7728
00000010: 7927 6ba4 cbad cc34 5eb8 95ac 9530 8636
00000020: c828 752d 1e37 a5a8 ca34 6832 fc34 062e
00000030: 05b7 87a4 47af 58b2 42b8 b1b4 b22f 60ae
00000040: 96a3 0080 0080 0000 0080 0000 0000 0000
00000050: 0000 0080 0000 0080 9822 3b34 8832 3fa3
00000060: 02b1 ff26 afb2 a2b6 a5b0 3e2f bd3c 9222
00000070: 74a3 e49c f229 83a8 089c 49a6 3d29 2527
00000080: b7a4 e123 9126 0ba0 f6a3 40a9 cf2a 5d2c
00000090: 7998 2d2b 3e25 1434 adb4 21b2 4bad d49e
000000a0: 69b0 8535 7731 51a4 9835 47a3 5428 66b4
000000b0: 9fb5 ca21 57b1 cc98 a1ae 66a9 a0a9 e22c
000000c0: 91b5 d322 02a4 893c 0334 9227 28b0 4a34
000000d0: 492d a630 26b4 57b7 74ac bca8 edb6 7cb3
000000e0: 1b34 71ac 0538 3636 a532 0d35 c0a2 8ab3
000000f0: 9b38

arith.constant41 f2 [1, 3, 3, 11]
-0.549 -0.072 0.0929 0.0 -0.1108 -0.3281 0.4602 -0.12006
0.2351 0.0708 0.1131 0.179 -0.03072 0.1765 -0.0 0.10486
-0.403 -0.311 0.7354 -0.4084 -0.1837 -0.1886 -0.5205 0.08594
-0.06033 0.0 -0.1178 -0.2837 0.4956 -0.1484 0.1979 0.04892
0.0595 0.0798 -0.3184 0.12305 -0.0 0.1672 -0.3206 -0.3035
0.611 -0.2441 -0.1782 -0.0706 1.385 -0.531 0.4897 -0.0
0.7334 0.6606 -1.427 -1.428 -0.8467 -0.4995 -0.528 0.00915
-0.2786 0.0997 -0.0 0.1318 -0.3262 -0.3206 0.649 -0.2216
-0.1677 -0.09094 -0.5215 0.0678 -0.05576 0.0 -0.1517 -0.2267
0.4478 -0.1384 0.213 -0.03075 0.1594 0.0971 -0.07874 0.162
0.0 0.2203 -0.3433 -0.3523 0.705 -0.3447 -0.1862 -0.13
-0.51 -0.014084 0.1068 0.0 -0.09753 -0.4626 0.455 -0.10474
0.2379 0.1343 0.1117
00000000: 64b8 9cac f22d 0000 17af 40b5 5d37 afaf
00000010: 8633 882c 3d2f ba31 dda7 a631 0080 b62e
00000020: 73b6 fab4 e239 89b6 e1b1 09b2 2ab8 802d
00000030: b9ab 0000 8aaf 8ab4 ee37 c0b0 5532 432a
00000040: 9e2b 1b2d 18b5 e02f 0080 5a31 21b5 dbb4
00000050: e338 d0b3 b4b1 85ac 8a3d 3fb8 d637 0080
00000060: de39 4939 b5bd b6bd c6ba feb7 39b8 af20
00000070: 75b4 612e 0080 3830 38b5 21b5 3139 17b3
00000080: 5eb1 d2ad 2cb8 572c 23ab 0000 dbb0 41b3
00000090: 2a37 6eb0 d132 dfa7 1a31 372e 0aad 2f31
000000a0: 0000 0d33 7eb5 a3b5 a439 84b5 f5b1 29b0
000000b0: 14b8 36a3 d62e 0000 3eae 67b7 4837 b4ae
000000c0: 9d33 4c30 262f

arith.constant42 f2 [11, 1, 1, 11]
0.2233 -0.1554 -0.2195 -0.0 0.1572 -0.11487 0.3145 -0.35
0.1451 0.2258 0.4006 0.1584 -0.2109 -0.6025 -0.0 0.2113
-0.04544 0.3506 -0.63 0.02637 0.3118 -0.3867 0.07043 0.52
0.0599 -0.0 -0.6436 -0.323 -1.162 -0.0767 -0.0348 0.2047
-0.2323 0.007835 -0.01433 0.02875 0.0 0.02174 -0.02734 0.004597
-0.0505 -0.01039 -0.00438 -0.0461 -0.2488 0.6045 -0.4917 0.0
-0.1573 -0.2424 0.001647 -0.5063 0.05374 -0.1086 -0.1084 0.3655
0.0677 -0.0838 0.0 -0.0712 1.797 0.193 -0.274 0.1737
-0.02016 0.3972 -0.1583 -0.1326 0.1205 0.0 0.1978 -0.4248
0.523 -0.931 -1.464 0.8887 -0.000543 0.1135 -0.084 -0.25
-0.0 0.1868 -0.1131 0.367 -0.1584 0.2026 -0.0726 0.1549
-0.876 0.2798 0.1946 -0.0 0.07336 0.3538 0.03595 -1.164
0.4607 -0.6113 0.1482 1.385 -0.04028 0.1032 -0.0 -0.4082
-0.3389 0.0483 -0.3135 -0.0487 0.1039 0.0772 0.126 0.2656
0.352 -0.0 -0.4993 -0.4788 -0.5205 -0.646 0.197 -0.3765
0.1995
00000000: 2533 f9b0 06b3 0080 0831 5aaf 0835 9ab5
00000010: a530 3a33 6936 1231 c0b2 d2b8 0080 c332
00000020: d1a9 9c35 0ab9 c026 fd34 30b6 822c 2938
00000030: ab2b 0080 26b9 2bb5 a6bc e9ac 74a8 8d32
00000040: 6fb3 0320 56a3 5c27 0000 9125 00a7 b51c
00000050: 77aa 52a1 7c9c e7a9 f6b3 d638 deb7 0000
00000060: 09b1 c2b3 bf16 0db8 e12a f3ae f0ae d935
00000070: 552c 5dad 0000 8fac 303f 2d32 62b4 8f31
00000080: 29a5 5b36 11b1 3eb0 b62f 0000 5432 ccb6
00000090: 2f38 73bb dbbd 1c3b 7390 442f 60ad 00b4
000000a0: 0080 fa31 3daf df35 12b1 7c32 a5ac f530
000000b0: 02bb 7a34 3a32 0080 b22c a935 9a28 a8bc
000000c0: 5f37 e4b8 be30 8a3d 28a9 9b2e 0080 88b6
000000d0: 6cb5 2f2a 04b5 3caa a62e f12c 0830 4034
000000e0: a235 0080 fdb7 a9b7 2ab8 2bb9 4e32 06b6
000000f0: 6232

arith.constant43 f2 [1, 7, 7, 32]
0.04242 -0.005142 -0.0698 0.0 -0.02823 -0.0 -0.001915 -0.00491
-0.0367 0.01569 -0.01354 0.03427 0.01491 -0.01602 -0.0 -0.03165
0.0 0.0 -0.012985 0.0363 -0.02086 -0.0335 -0.02919 -0.010506
0.01407 0.03857 0.001436 -0.04587 0.00906 0.02081 0.0 0.01413
0.006035 -0.010925 -0.0466 0.0 -0.011116 0.0 0.02602 0.05362
-0.05856 -0.01321 -0.005257 -0.02347 0.01041 0.00937 -0.0 -0.01167
0.0 0.0 -0.06055 0.02551 -0.03117 -0.02164 -0.0512 0.0121
0.0348 0.02562 -0.00835 -0.02657 0.01162 0.0499 0.0 0.00351
-0.02406 0.0557 -0.0411 -0.0 0.01517 0.0 -0.039 -0.06726
-0.01108 0.02829 0.04782 -0.0568 0.03033 -0.01657 -0.0 0.1072
0.0 0.0 -0.02063 0.00599 0.01859 -0.0249 -0.00481 -0.06995
-0.002245 0.03546 -0.04398 0.05957 -0.02243 -0.05783 0.0 0.02296
-0.03513 -0.008484 0.0717 -0.0 -0.05023 0.0 -0.01207 0.0945
0.01542 -0.02557 0.03067 -0.04437 0.054 0.006462 -0.0 -0.01836
0.0 0.0 0.02669 -0.1262 0.05957 -0.11975 0.003998 -0.09796
-0.09705 -0.01022 0.02481 0.002428 -0.033 -0.02199 -0.0 -0.0301
0.04126 0.03093 0.0871 -0.0 0.02124 0.0 -0.0009336 -0.02258
-0.00414 -0.004345 0.05316 -0.03806 -0.0773 0.001306 -0.0 -0.06537
0.0 0.0 0.04623 0.0303 0.05014 -0.01077 0.02963 -0.0548
-0.05136 -0.04745 -0.00704 0.04974 0.001053 -0.08356 0.0 0.02757
0.03117 -0.00715 -0.00785 -0.0 0.02834 0.0 0.08417 -0.05386
-0.06915 0.0162 -0.013306 -0.006325 0.009186 -0.00995 0.0 -0.02095
0.0 0.0 0.04724 0.00247 0.02573 -0.001576 -0.01095 -0.013626
0.03015 -0.0407 0.0253 -0.02791 0.00448 -0.02254 -0.0 0.0008073
-0.002506 -0.003633 -0.0573 -0.0 0.003836 0.0 0.01068 -0.0852
0.02063 -0.000995 -0.01089 0.05295 0.00437 0.00103 -0.0 0.02444
0.0 0.0 0.001163 0.0001659 0.015045 -0.0594 -0.01987 -0.00893
0.02818 -0.000702 0.001042 -0.01622 0.02173 0.02592 0.0 0.01617
0.0344 0.00437 -0.0212 -0.0 -0.04166 -0.0 -0.00778 -0.0749
-0.04886 0.000697 0.02708 0.03023 -0.03958 -0.00281 -0.0 -0.0536
0.0 0.0 0.02559 -0.02003 0.01308 0.003185 0.02869 -0.001455
0.0336 0.0295 -0.001909 -0.04333 -0.03467 0.02905 0.0 0.02634
00000000: 6e29 449d 78ac 0000 3aa7 0080 d897 079d
00000010: b3a8 0424 efa2 6328 a223 1aa4 0080 0da8
00000020: 0000 0000 a6a2 a528 57a5 4aa8 79a7 61a1
00000030: 3423 f028 e215 dfa9 a420 5425 0000 3c23
00000040: 2e1e 98a1 f7a9 0000 b1a1 0000 a926 dd2a
00000050: 7fab c3a2 629d 02a6 5421 cc20 0080 faa1
00000060: 0000 0000 c0ab 8826 fba7 8aa5 8eaa 3222
00000070: 7428 8f26 46a0 cda6 f321 632a 0000 301b
00000080: 29a6 212b 43a9 0080 c423 0000 fea8 4eac
00000090: aca1 3e27 1f2a 45ab c427 3ea4 0080 dc2e
000000a0: 0000 0000 48a5 221e c224 60a6 ed9c 7aac
000000b0: 9998 8a28 a1a9 a02b bea5 67ab 0000 e125
000000c0: 7fa8 58a0 972c 0080 6eaa 0000 2ea2 0c2e
000000d0: e523 8ca6 da27 aea9 e92a 9e1e 0080 b3a4
000000e0: 0000 0000 d526 0ab0 a02b aaaf 181c 45ae
000000f0: 36ae 3ca1 5a26 f918 39a8 a1a5 0080 b5a7
00000100: 4829 eb27 932d 0080 7025 0000 a693 c8a5
00000110: 3d9c 739c ce2a dfa8 f2ac 5915 0080 2fac
00000120: 0000 0000 eb29 c227 6b2a 84a1 9627 04ab
00000130: 93aa 13aa 359f 5e2a 5014 59ad 0000 0f27
00000140: fb27 529f 05a0 0080 4127 0000 632d e5aa
00000150: 6dac 2624 d0a2 7a9e b420 18a1 0000 5da5
00000160: 0000 0000 0c2a 0f19 9626 7596 9ba1 faa2
00000170: b827 36a9 7a26 25a7 961c c5a5 0080 9d12
00000180: 2299 719b 56ab 0080 db1b 0000 7821 74ad
00000190: 4825 1394 93a1 c72a 7a1c 3814 0080 4226
000001a0: 0000 0000 c314 7009 b423 9aab 16a5 92a0
000001b0: 3727 c091 4514 27a4 9025 a326 0000 2424
000001c0: 6728 7a1c 6da5 0080 55a9 0080 f79f cbac
000001d0: 41aa b611 ef26 bd27 11a9 c199 0080 dcaa
000001e0: 0000 0000 8d26 21a5 b222 861a 5827 f695
000001f0: 4d28 8d27 d297 8ca9 70a8 7027 0000 be26
