app/src/main/ml/doc_seg_nasnet_336.tflite (tflite, 631954 bytes, 230 tensors)

arith.constant f2 [128]
00000000: 3536 862c 8c2c a32d e129 1932 8828 4234
00000010: 5134 012e f530 9a2e 0228 3129 3130 2d2b
00000020: 052d 462c 8d31 e72d cb2b 6426 3831 e430
00000030: 752f 5f28 fb2e 042e 012c 632f 5930 f52c
00000040: 282b 6b2c c421 4529 752b 7027 8d2c df2e
00000050: 1c31 5a2a 4232 242b ee2c 9a31 042c 302e
00000060: 47a7 c92e 5735 032c 7528 f832 a82f eda0
00000070: c52d e12c e331 0b35 852d 0130 7132 68a2
00000080: 1d35 2b2e 7a28 6b2a d331 f628 752f 9b34
00000090: 7b31 692e 152e 4496 7631 372a f62e 372f
000000a0: 7632 c92c 2930 2b2f 1a30 8fa3 a928 6a2d
000000b0: c02d 8e2c 4b34 9830 fb2c f832 9436 222e
000000c0: 4c31 3330 1735 2c2c 9b2a 2332 1a35 4831
000000d0: 2332 fb31 3733 a432 6233 e6a1 982e 1c1c
000000e0: d530 9e2b 0b35 de30 4925 6e1f 0c2e 6929
000000f0: 0327 5a2e 8d2f ed30 d131 3930 f729 a930
0.388 0.0707 0.07104 0.0881 0.04593 0.1906 0.0354 0.266
0.2698 0.0938 0.1549 0.10315 0.0313 0.04056 0.131 0.05606
0.0784 0.0668 0.1735 0.0922 0.06088 0.02496 0.1631 0.1528
0.1165 0.03415 0.1091 0.094 0.06256 0.1154 0.1359 0.07745
0.0559 0.06903 0.01126 0.04117 0.05826 0.02905 0.0711 0.10736
0.1597 0.04962 0.1956 0.0558 0.077 0.175 0.06274 0.0967
-0.02843 0.106 0.3337 0.0627 0.03482 0.2178 0.1196 -0.00962
0.09015 0.07623 0.184 0.3152 0.08624 0.1251 0.2013 -0.01251
0.3196 0.0964 0.03497 0.05014 0.182 0.03876 0.1165 0.2878
0.1713 0.10016 0.09503 -0.00153 0.1707 0.04855 0.10876 0.11273
0.2019 0.07477 0.13 0.112 0.1282 -0.01476 0.0364 0.0846
0.08984 0.07117 0.2683 0.1436 0.0778 0.2178 0.4111 0.0958
0.1655 0.1312 0.318 0.0652 0.0516 0.1918 0.3188 0.165
0.1918 0.1869 0.2255 0.2075 0.2307 -0.01152 0.103 0.004013
0.151 0.0595 0.3152 0.1521 0.02065 0.007256 0.0945 0.04227
0.02739 0.09924 0.118 0.1539 0.1818 0.132 0.0466 0.1456

arith.constant1 f2 [128]
00000000: d33d 8d3c 873c 4b3c 7b3c e13c 243c cc3c
00000010: a13d d13c ae3c 943c 353c 423c be3c 723c
00000020: 833c a03c 253d ec3c 523c bc3c 9b3c a53c
00000030: c23c 9d3c 863c 863c 7f3c 903c 883c 693c
00000040: 903c 1c3c 573c 4d3c 503c 1d3c 4d3c 9e3c
00000050: 8b3c 313c c13c ba3c 8c3c f43c 1d3c ae3c
00000060: 9c3c 803c 6b3d 833c 7e3c 203d e83c f13b
00000070: 553c 503c aa3c 9c3d 693c 8b3c 1c3d f23b
00000080: 1c3d e03c 283c 763c d33c 653c 863c 573d
00000090: ec3c 913c fd3c f43c b43c 693c b83c aa3c
000000a0: 193d b93c b93c be3c 9c3c 3c3c 463c ba3c
000000b0: d83c 4d3c ff3c 993c b83c d73c 083e 4a3c
000000c0: ce3c f93c 723d 583c 233c c53c 2d3d 803d
000000d0: 983c a53c 233d 3b3d 2b3d 2d3c af3c 7d3c
000000e0: d03c ba3c ef3d e83c 783c 9b3c a23c 793c
000000f0: 1c3c 863c b13c c43c 243d c43c 473c d63c
1.456 1.138 1.132 1.073 1.12 1.22 1.035 1.199
1.407 1.204 1.17 1.145 1.052 1.064 1.186 1.111
1.128 1.156 1.286 1.23 1.08 1.184 1.151 1.161
1.189 1.153 1.131 1.131 1.124 1.141 1.133 1.103
1.141 1.027 1.085 1.075 1.078 1.028 1.075 1.154
1.136 1.048 1.188 1.182 1.137 1.238 1.028 1.17
1.152 1.125 1.3545 1.128 1.123 1.281 1.227 0.9927
1.083 1.078 1.166 1.402 1.103 1.136 1.277 0.993
1.277 1.219 1.039 1.115 1.206 1.099 1.131 1.335
1.23 1.142 1.247 1.238 1.176 1.103 1.18 1.166
1.274 1.181 1.181 1.186 1.152 1.059 1.068 1.182
1.211 1.075 1.249 1.149 1.18 1.21 1.508 1.072
1.201 1.243 1.361 1.086 1.034 1.192 1.294 1.375
1.148 1.161 1.284 1.308 1.292 1.044 1.171 1.122
1.203 1.182 1.483 1.227 1.117 1.151 1.158 1.118
1.027 1.131 1.173 1.191 1.285 1.191 1.069 1.209

arith.constant21 f2 [44]
00000000: 4738 4c35 3034 5b35 8f38 6731 1a34 2032
00000010: 0736 f837 dd35 dd36 0fb4 eb35 3438 a43a
00000020: d432 9a38 e733 4e34 ed34 eb33 c137 1a34
00000030: ba34 5136 2435 6334 ad35 f636 c635 4a31
00000040: cc39 d636 fb32 9933 8436 f135 1936 b439
00000050: 4335 5e32 8236 eb34
0.5347 0.331 0.2617 0.3347 0.57 0.1688 0.2563 0.1914
0.3767 0.498 0.3665 0.429 -0.2537 0.3699 0.5254 0.83
0.2134 0.575 0.247 0.269 0.3079 0.2474 0.4846 0.2563
0.2954 0.3948 0.3213 0.2742 0.3547 0.435 0.3608 0.1653
0.7246 0.4272 0.2181 0.2374 0.4072 0.3713 0.381 0.713
0.3289 0.199 0.4067 0.3074

arith.constant22 f2 [44]
00000000: 9947 01bf 5b45 6333 af43 8241 1a45 1642
00000010: 8cbe f4b4 7c30 4cb9 86b4 af46 f742 a0c4
00000020: ae3e eebe c643 0944 40bd 833c 1545 0fbb
00000030: 493d 7a44 2531 1544 d73d 39b4 e3be 8141
00000040: bbc4 1244 d740 09c0 c749 1045 e448 99c7
00000050: 6338 0a48 92c2 42c1
7.598 -1.751 5.355 0.2308 3.842 2.754 5.1 3.043
-1.637 -0.3096 0.1401 -0.662 -0.2827 6.684 3.482 -4.625
1.67 -1.732 3.887 4.035 -1.3125 1.128 5.082 -0.8823
1.321 4.477 0.1608 4.082 1.46 -0.264 -1.722 2.752
-4.73 4.07 2.42 -2.018 11.555 5.062 9.78 -7.598
0.5483 8.08 -3.285 -2.629

arith.constant23 f2 [88]
00000000: 2b3a 4d3a 9e38 0e37 c333 2237 6736 4b34
00000010: 6c35 5d39 ec36 4e32 ab37 5534 5a3d dc37
00000020: 3733 b539 9b38 4133 7538 8e39 6636 3d38
00000030: ac3c 6a35 1839 9c38 a737 143a 443c 9b38
00000040: d439 8138 5837 5e38 ac37 5c36 1239 3939
00000050: ab37 cf38 e83a 1f3c ab38 7637 d339 d739
00000060: ec38 3839 5a3d 5038 6e3a 0137 3b38 9037
00000070: 0438 eb3a 0c37 5539 2f37 9e36 7031 fe37
00000080: e939 5b39 c738 0435 1838 bd34 cf31 9337
00000090: 5136 cd36 3638 d939 ff38 e038 0838 8437
000000a0: 8938 7f35 6939 f037 2e38 da39 3138 6134
0.771 0.7876 0.577 0.441 0.2426 0.4458 0.4001 0.2683
0.3389 0.6704 0.4326 0.197 0.4792 0.2708 1.338 0.4912
0.2255 0.7134 0.5757 0.2267 0.557 0.6943 0.4 0.53
1.168 0.3384 0.6367 0.576 0.4783 0.76 1.066 0.5757
0.7285 0.563 0.459 0.546 0.4795 0.3975 0.634 0.653
0.4792 0.601 0.8633 1.03 0.5835 0.4663 0.728 0.73
0.615 0.6523 1.338 0.539 0.8037 0.4377 0.529 0.4727
0.502 0.8647 0.4404 0.6665 0.449 0.4136 0.1699 0.4995
0.739 0.6694 0.597 0.3135 0.5117 0.2961 0.1815 0.4734
0.3948 0.425 0.5264 0.731 0.6245 0.6094 0.504 0.4697
0.567 0.3435 0.6763 0.496 0.5225 0.7314 0.524 0.2737

arith.constant24 f2 [88]
00000000: a2bc acc7 56ba 59b5 5bb6 f2c1 82bf 003a
00000010: 90c0 d93b 013a 6138 f8b1 9d3d 873e 0ac1
00000020: 613e 2c41 7db8 6c41 0fc2 c9c1 0738 e33d
00000030: dbc0 45c0 30b9 af3e 7ec2 1241 1fc2 b6b9
00000040: 6f39 003e a1b4 c6be 34bd 323c 832d b834
00000050: fc2a e73a 29bd 7237 c041 f2be 7b36 293f
00000060: 6b24 0bb2 03c2 c0b8 f4c0 d613 623e eb3f
00000070: f63e dac0 d7bd 41c4 0441 33b8 a82f 5339
00000080: bdc2 b03b 27ac 1142 3aad 0f37 de3f fd38
00000090: 34bb 9e3c 87bf d035 a5c4 7ec2 313a 043e
000000a0: 5f3a 3cba f738 ab37 3abc a540 17c1 7040
-1.158 -7.67 -0.792 -0.3342 -0.3972 -2.973 -1.877 0.75
-2.281 0.981 0.7505 0.5474 -0.1865 1.403 1.632 -2.52
1.595 2.586 -0.561 2.71 -3.03 -2.893 0.5034 1.472
-2.428 -2.135 -0.6484 1.671 -3.246 2.535 -3.06 -0.714
0.679 1.5 -0.2893 -1.693 -1.301 1.049 0.0861 0.295
0.05457 0.863 -1.29 0.4653 2.875 -1.736 0.405 1.79
0.01726 -0.1888 -3.006 -0.5938 -2.477 0.0009565 1.596 1.9795
1.74 -2.426 -1.46 -4.254 2.508 -0.525 0.1196 0.6655
-3.37 0.961 -0.0649 3.033 -0.08167 0.4412 1.967 0.6235
-0.9004 1.154 -1.882 0.3633 -4.645 -3.246 0.774 1.504
0.7964 -0.7793 0.6206 0.4792 -1.057 2.322 -2.545 2.219

arith.constant25 f2 [22]
00000000: 423a 313d ee31 2439 783d 083e 8b36 0137
00000010: b43c 2c3a f135 273c eb3c ca37 ad36 b537
00000020: 5f3c 2d42 383a 6b4a ec3c 6f41
0.782 1.298 0.1853 0.6426 1.367 1.508 0.409 0.4377
1.176 0.7715 0.3713 1.038 1.2295 0.4868 0.4172 0.4817
1.093 3.088 0.7773 12.836 1.23 2.717

arith.constant26 f2 [22]
00000000: 00b7 9840 5f46 b541 a942 b140 35bd 5044
00000010: b63b 7241 2a42 32bb 173e 7cc2 8344 8543
00000020: e543 92ca 513c b5ba 61c2 6eca
-0.4375 2.297 6.37 2.854 3.33 2.346 -1.302 4.312
0.964 2.723 3.082 -0.8994 1.522 -3.242 4.51 3.76
3.947 -13.14 1.079 -0.8384 -3.19 -12.86

arith.constant27 f2 [32]
00000000: 0000 0000 0000 0000 0000 0000 0000 0000
00000010: 0000 0000 0000 0000 0000 0000 0000 0000
00000020: 0000 0000 0000 0000 0000 0000 0000 0000
00000030: 0000 0000 0000 0000 0000 0000 0000 0000
0.0 0.0 0.0 0.0 0.0 0.0 0.0 0.0
0.0 0.0 0.0 0.0 0.0 0.0 0.0 0.0
0.0 0.0 0.0 0.0 0.0 0.0 0.0 0.0
0.0 0.0 0.0 0.0 0.0 0.0 0.0 0.0

arith.constant28 f2 [32, 3, 3, 3]
00000000: 7bbc 9db8 31b8 66c1 15c3 13bd 4e43 a843
00000010: 023f 55bf 3abe 7fb9 d7c4 7ec6 9ec1 7546
00000020: af47 fb42 3cb5 baa3 49b7 dbc0 6ac2 24bf
00000030: 3642 5643 9c3f 293f 773f 883b ef44 3046
00000040: 6442 fe41 4c43 c73f 04bd 5ebc 9bb4 b5c1
00000050: e9c3 12bf 32c0 48c1 1abd 15b9 21ae 05b5
00000060: fdbe 17c1 8bbd 32bd 9ebd acbb 7235 2d32
00000070: 7333 7236 eb33 e031 ce32 d830 f633 db38
00000080: 8936 5a35 d237 1e38 1435 0233 b733 b134
00000090: 4b38 6e34 dc34 af35 8636 bb34 c535 b334
000000a0: 7335 0080 0000 0080 0080 0000 0080 0080
000000b0: 0000 0080 0080 0000 0000 0080 0000 0080
000000c0: 0080 0000 0080 0080 0000 0080 0080 0000
000000d0: 0080 0080 0000 0080 2fbc 4334 dd38 9ebe
000000e0: 4522 d73d 07bd 9531 623b 0cbf 8bb1 ea3e
000000f0: 09c0 78b4 1e40 02c0 239d d03f 51bd c726
00000100: c83c cbbf b9ae be3f 32be ddad 283e 0080
00000110: 0080 0000 0080 0080 0080 0080 0080 0080
00000120: 0080 0080 0000 0080 0080 0080 0080 0080
00000130: 0080 0080 0080 0000 0080 0080 0080 0080
00000140: 0080 0080 10be 49b4 8cb3 c52e cb45 8444
00000150: 0ac0 c23c 863d a939 522f ccb5 c23f 6d3c
00000160: 5bbc c12e 79b1 ddb9 12bc 2aa7 0432 7739
00000170: fa2e a9bd 3b39 3b39 f8bb 11c8 fd41 7a42
00000180: 6bc6 2cbb f240 75ca 9745 d944 5ac7 3641
00000190: 0e43 6e4d 3cc9 62c9 3945 a2c1 c5c0 94c9
000001a0: ad44 9945 0e4c c6c8 43c7 8145 cdc0 16c2
000001b0: 6e3c c3bb 562f 7d3e 39bf b108 9737 3ebc
000001c0: 323a d23d 93be c7a5 1d41 e8bf 9db8 c33c
000001d0: afbf db38 0a2c 7cb9 4838 d03c c3be 6537
000001e0: 3826 78bc 713b dc3f 1e41 ae3c d740 db41
000001f0: aa3d 09c4 c0c5 d3c1 6a3f 9c40 ff3a 6043
-1.12 -0.5767 -0.524 -2.7 -3.541 -1.269 3.652 3.828
1.752 -1.833 -1.557 -0.687 -4.84 -6.492 -2.809 6.457
7.684 3.49 -0.3271 -0.01509 -0.4553 -2.428 -3.207 -1.785
3.105 3.668 1.902 1.79 1.866 0.9414 4.934 6.188
3.195 2.996 3.648 1.944 -1.254 -1.092 -0.2878 -2.854
-3.955 -1.768 -2.098 -2.64 -1.275 -0.6353 -0.09576 -0.3137
-1.747 -2.545 -1.386 -1.299 -1.404 -0.959 0.3403 0.193
0.2328 0.4028 0.2474 0.1836 0.2126 0.1514 0.2488 0.607
0.4084 0.3345 0.4888 0.5146 0.3174 0.219 0.2411 0.2932
0.5366 0.2769 0.3037 0.3552 0.4077 0.2957 0.3606 0.2937
0.3406 -0.0 0.0 -0.0 -0.0 0.0 -0.0 -0.0
0.0 -0.0 -0.0 0.0 0.0 -0.0 0.0 -0.0
-0.0 0.0 -0.0 -0.0 0.0 -0.0 -0.0 0.0
-0.0 -0.0 0.0 -0.0 -1.046 0.2664 0.608 -1.654
0.012245 1.46 -1.257 0.1744 0.923 -1.762 -0.1732 1.729
-2.018 -0.2793 2.059 -2.004 -0.005016 1.953 -1.329 0.02647
1.195 -1.948 -0.10504 1.936 -1.549 -0.0916 1.539 -0.0
-0.0 0.0 -0.0 -0.0 -0.0 -0.0 -0.0 -0.0
-0.0 -0.0 0.0 -0.0 -0.0 -0.0 -0.0 -0.0
-0.0 -0.0 -0.0 0.0 -0.0 -0.0 -0.0 -0.0
-0.0 -0.0 -1.516 -0.2678 -0.2358 0.1058 5.793 4.516
-2.02 1.189 1.381 0.7075 0.1144 -0.3623 1.939 1.106
-1.089 0.1055 -0.171 -0.733 -1.018 -0.02798 0.188 0.683
0.109 -1.415 0.654 0.654 -0.996 -8.13 2.994 3.238
-6.418 -0.8965 2.473 -12.914 5.59 4.848 -7.35 2.605
3.527 21.72 -10.47 -10.766 5.223 -2.816 -2.385 -11.16
4.676 5.598 16.22 -9.55 -7.26 5.504 -2.4 -3.043
1.107 -0.97 0.1146 1.622 -1.806 0.0001432 0.4744 -1.061
0.7744 1.455 -1.644 -0.02257 2.557 -1.977 -0.5767 1.19
-1.921 0.607 0.0631 -0.6855 0.535 1.203 -1.69 0.4622
0.02429 -1.117 0.93 1.965 2.559 1.17 2.42 2.928
1.416 -4.035 -5.75 -2.912 1.854 2.305 0.8745 3.688

arith.constant29 f2 [11]
00000000: 0000 0000 0000 0000 0000 0000 0000 0000
00000010: 0000 0000 0000
0.0 0.0 0.0 0.0 0.0 0.0 0.0 0.0
0.0 0.0 0.0

arith.constant30 f2 [11, 1, 1, 32]
00000000: 4abd 1a33 aeb2 0080 cab0 0080 9730 c932
00000010: df31 ec39 10b0 26b6 a6ae f4ae 0080 d233
00000020: 0000 0080 23aa 1139 6d32 c830 582d e9af
00000030: 0b2f c235 73be 3035 4bb4 30b9 0000 63b0
00000040: 2732 df34 71a3 0000 3a1c 0000 2028 a5a9
00000050: ab1c bab8 251e e724 b823 9d24 0080 b31b
00000060: 0000 0000 82b8 0729 a7ab 3c18 ac8d a72e
00000070: 0b28 c32a 89b7 f7a4 7824 0fb4 0080 50b8
00000080: aaa4 5399 96a4 0080 4218 0000 7aa4 7d21
00000090: 3faf f924 d99a 081c afac b02d 0000 b122
000000a0: 0080 0000 b4b4 6818 33b0 79aa ffad f1ba
000000b0: 3d34 712e 3393 4ca3 5199 8230 0000 15a2
000000c0: 629c c1a0 abaa 0080 4926 0080 2008 482e
000000d0: 7f33 490e f834 3432 5da2 c5a1 0080 a1a1
000000e0: 0080 0000 299f ef84 6b2f 792b 5032 8820
000000f0: 1ca5 91a4 ada2 ef2b 922f 101d 0080 6889
00000100: 1825 90bc e3a3 0080 b7a3 0080 f9a7 a821
00000110: 9c23 492e 81a6 a2ac 512b 46ad 0080 55a9
00000120: 0000 0000 7a29 342d 1a2c d320 411f ec3a
00000130: dabc 342d d01e 862d 9ca6 6ba1 0000 4a3a
00000140: fe9d 4a24 842d 0080 9f29 0080 042b 2da9
00000150: a3b2 ba2d 3cb4 41b0 ec9e a998 0080 9ba8
00000160: 0080 0080 6aaa 702c 2d2a faaa d6ad 782a
00000170: d7af 9e2b ac22 b32a e2ae c12c 0080 e82a
00000180: bab9 cc33 889d 0080 0bac 0080 ef1d d8b0
00000190: a419 cc33 04ae 3b20 872a 7eac 0080 ad31
000001a0: 0080 0000 db86 a3b7 18a3 78ab 1d28 d131
000001b0: a7b4 28a6 cb2f 33ad 16a9 5db1 0080 05b6
000001c0: 3435 4034 4da9 0000 dba7 0000 cf2f a8b1
000001d0: 06b1 72ba cf1e 8431 af2c 1928 0000 ca2a
000001e0: 0000 0000 aa2f b4b9 09b3 bdaf d9b0 14b4
000001f0: 6534 6d33 5a36 e0ae 662e feaf 0000 25b3
-1.322 0.2219 -0.2087 -0.0 -0.1497 -0.0 0.1434 0.212
0.1835 0.74 -0.127 -0.3843 -0.1039 -0.10864 -0.0 0.2444
0.0 -0.0 -0.04794 0.6333 0.2008 0.1494 0.0835 -0.1236
0.11005 0.3599 -1.612 0.3242 -0.2683 -0.6484 0.0 -0.1371
0.1923 0.3044 -0.014534 0.0 0.004128 0.0 0.03223 -0.0441
0.00456 -0.591 0.006 0.01915 0.015076 0.01802 -0.0 0.00376
0.0 0.0 -0.5635 0.03928 -0.05978 0.002068 -0.0003462 0.10394
0.0316 0.05283 -0.471 -0.0194 0.01746 -0.2537 -0.0 -0.539
-0.01822 -0.0026 -0.01791 -0.0 0.002079 0.0 -0.01749 0.01072
-0.1132 0.01942 -0.003344 0.003937 -0.0732 0.08887 0.0 0.01307
-0.0 0.0 -0.294 0.002151 -0.1312 -0.05057 -0.0937 -0.8677
0.265 0.10065 -0.000879 -0.01425 -0.002596 0.1409 0.0 -0.01188
-0.00428 -0.009285 -0.0521 -0.0 0.02455 -0.0 0.0001259 0.09814
0.2343 0.0003836 0.3105 0.1938 -0.01243 -0.01127 -0.0 -0.010994
-0.0 0.0 -0.006992 -7.53e-05 0.1159 0.05838 0.1973 0.00885
-0.01996 -0.01784 -0.01304 0.06198 0.1183 0.004944 -0.0 -0.000165
0.0199 -1.141 -0.0154 -0.0 -0.01507 -0.0 -0.03114 0.01105
0.01486 0.0982 -0.0254 -0.0724 0.05716 -0.0824 -0.0 -0.04166
0.0 0.0 0.0428 0.0813 0.0641 0.00942 0.007084 0.865
-1.213 0.0813 0.006653 0.0863 -0.02582 -0.01058 0.0 0.786
-0.00585 0.01675 0.0862 -0.0 0.0439 -0.0 0.0548 -0.04044
-0.2074 0.0895 -0.2646 -0.1329 -0.00676 -0.002275 -0.0 -0.03598
-0.0 -0.0 -0.0501 0.06934 0.04825 -0.0545 -0.0912 0.05054
-0.1225 0.0595 0.01303 0.05234 -0.10754 0.0743 -0.0 0.05396
-0.716 0.2437 -0.0054 -0.0 -0.0632 -0.0 0.005795 -0.1514
0.002754 0.2437 -0.094 0.00826 0.051 -0.0702 -0.0 0.1774
-0.0 0.0 -0.0001046 -0.4773 -0.013855 -0.05835 0.03214 0.1818
-0.2908 -0.02405 0.12177 -0.08124 -0.03973 -0.1676 -0.0 -0.3762
0.3252 0.2656 -0.0414 0.0 -0.03069 0.0 0.122 -0.1768
-0.157 -0.8057 0.00665 0.1724 0.0732 0.032 0.0 0.05304
0.0 0.0 0.11975 -0.713 -0.2198 -0.1209 -0.1515 -0.255
0.2747 0.232 0.397 -0.1074 0.1 -0.1249 0.0 -0.2233

arith.constant31 f2 [1, 5, 5, 11]
00000000: 4eaf 78ad 891e 6e28 ae20 d0a8 1f14 7523
00000010: 1026 8ba8 a420 4f34 aaad 0c26 8e1c 4d2b
00000020: 81a4 05af 31b4 1b30 dcb0 e11e d7b5 91a6
00000030: d81d b82c a92e 2fac e0a7 3233 1cb1 dfad
00000040: 8f29 ff30 5aac b2ad ee29 152b 45ab 8822
00000050: 802a 1d20 b1ad c926 cbaa 00ac bb16 3428
00000060: ed23 85a4 f224 58a7 efa9 eaa9 001d 2434
00000070: 47b0 7629 88a3 0630 b4b0 72b2 3628 9b30
00000080: 93b2 4d21 47b9 1fb5 5fac 372e aa34 82b0
00000090: a3b9 4039 0931 55b6 df28 d133 c4b4 8db4
000000a0: 762e 0f38 33af a039 5cbc f9ba c6b7 2321
000000b0: e12e 3b28 38b1 73ad 3e31 46a4 5530 a734
000000c0: 6935 90b0 d2a9 fa28 1a23 3b24 1faa caa3
000000d0: 1dad 8e1c 562d 9230 32b0 6fa5 b4b2 0cb0
000000e0: 92ad ecb3 d128 8a37 35aa 37af 4ab0 c9ad
000000f0: 37ad 8aad 67b6 8931 feb4 ca36 a838 b33c
00000100: dab7 83bb 30b6 35b6 823b adb9 183a 55b8
00000110: 5439 d937 c134 613d 5e3e e2b9 58b8 acb8
00000120: 42b5 7839 47b5 9535 b535 88b9 c9b8 fea6
00000130: 20b6 b5b1 6eac 68ac c431 4cb4 fc28 b636
00000140: 59ae 88ac 90af f4a7 da2c 6221 0518 0a2e
00000150: 6232 599d deb4 2030 022b 8625 75ae cd2c
00000160: bd35 b6ab e1ae 9131 512d 1eb6 cfaf 649e
00000170: 9c36 9ea6 8138 abb8 8ab6 fbb9 4235 5236
00000180: 67b3 b6bb a1b5 34b5 ccaf 433c 3a30 58b4
00000190: e6ba 1538 3d32 f3b5 5136 f733 b3b5 77b1
000001a0: 1a38 452d 4fa3 10b5 1335 582c beb2 eba1
000001b0: c326 caa6 64ae 5a25 f0a4 32a3 f0a0 fc2b
000001c0: 46ab a2a9 a01f 1417 e9a7 99ae 9220 8d2c
000001d0: 71a8 d8a5 7fa6 e5a0 aba1 e2ab e62e ae2e
000001e0: 27a8 ebb1 33b1 79a8 d933 28a8 1521 bba8
000001f0: 7529 80ae 5fa1 452b 1bb9 d52f 2bac d835
-0.11414 -0.08545 0.006382 0.0346 0.00914 -0.0376 0.001006 0.014565
0.02368 -0.0355 0.00906 0.2693 -0.0885 0.02362 0.004448 0.05704
-0.0176 -0.1097 -0.262 0.1283 -0.1519 0.006718 -0.365 -0.02565
0.005707 0.0737 0.10406 -0.06537 -0.03076 0.2249 -0.1597 -0.09174
0.04343 0.1561 -0.068 -0.089 0.04633 0.05533 -0.0568 0.01276
0.05078 0.00803 -0.0889 0.0265 -0.05307 -0.0625 0.001643 0.03284
0.01548 -0.01765 0.01932 -0.02869 -0.04636 -0.0462 0.004883 0.2588
-0.1337 0.04266 -0.01471 0.1257 -0.147 -0.2014 0.0329 0.1439
-0.2054 0.01035 -0.6597 -0.32 -0.0683 0.0971 0.2915 -0.1409
-0.7046 0.6562 0.1573 -0.3958 0.03806 0.2443 -0.2979 -0.2844
0.10095 0.5073 -0.1125 0.703 -1.09 -0.8716 -0.4858 0.01003
0.1075 0.03305 -0.1631 -0.08514 0.1638 -0.0167 0.1354 0.2908
0.3381 -0.1426 -0.04547 0.03888 0.01387 0.01653 -0.04782 -0.01521
-0.0799 0.004448 0.0834 0.1428 -0.1311 -0.02122 -0.2095 -0.1265
-0.08704 -0.2476 0.03763 0.4712 -0.0485 -0.11273 -0.134 -0.0904
-0.0815 -0.08655 -0.4001 0.173 -0.312 0.4243 0.582 1.175
-0.4907 -0.939 -0.3867 -0.388 0.9385 -0.7095 0.7617 -0.5415
0.666 0.4905 0.297 1.345 1.592 -0.7354 -0.543 -0.584
-0.3286 0.6836 -0.3298 0.3489 0.3567 -0.6914 -0.598 -0.02731
-0.3828 -0.1783 -0.0692 -0.06885 0.1802 -0.2686 0.03894 0.4194
-0.0992 -0.0708 -0.11816 -0.03107 0.0758 0.01051 0.001963 0.09436
0.1995 -0.005222 -0.3042 0.1289 0.05475 0.02158 -0.1009 0.075
0.3586 -0.06024 -0.1075 0.174 0.08307 -0.3823 -0.122 -0.00624
0.413 -0.02585 0.563 -0.5835 -0.4087 -0.7476 0.3286 0.395
-0.2313 -0.964 -0.3518 -0.3252 -0.1218 1.065 0.1321 -0.2715
-0.8623 0.5103 0.195 -0.3718 0.3948 0.2489 -0.3562 -0.1708
0.5127 0.08234 -0.014275 -0.3164 0.3171 0.0679 -0.2107 -0.01156
0.02641 -0.02652 -0.09985 0.0209 -0.01929 -0.01405 -0.00964 0.06238
-0.05682 -0.044 0.007446 0.001728 -0.0309 -0.1031 0.00893 0.0711
-0.0347 -0.02283 -0.02538 -0.00956 -0.01107 -0.06158 0.1078 0.1044
-0.03244 -0.1849 -0.1625 -0.03494 0.2452 -0.03247 0.009926 -0.03696
0.04263 -0.10156 -0.01049 0.0568 -0.638 0.1224 -0.0651 0.3652

arith.constant32 f2 [11, 1, 1, 11]
00000000: 0b31 2095 7c2f 872c a1ad cdad d93a f228
00000010: 35bd eb27 0b30 0a35 f829 b220 e2a9 b5ab
00000020: ee2b 6732 77bd 0531 5fa9 7427 0ea5 3126
00000030: 7c3a f7a1 f417 e4b0 39a7 16ac af2b 3010
00000040: cb39 799d a7b7 cab0 3f26 df39 e82d 0aac
00000050: 4023 c928 2fb7 74ac 3d37 8125 5aa9 e7a2
00000060: 11ab b2a4 cf2b d83d 0434 29a4 30a9 9bb7
00000070: bfa5 2b35 3632 84ad a1b5 9439 3229 d53b
00000080: 309d ebb1 c729 1c28 fdbd c3b2 f2a9 8139
00000090: 79a1 65a6 119f 3025 2039 6334 e523 32b4
000000a0: edb1 84a8 4434 28be 2faa ca35 7121 df31
000000b0: 6c91 fda4 0438 8634 12ad 75b7 652e 83a5
000000c0: 4699 c620 ffbc 662b a23a 51a9 b5a9 5038
000000d0: f831 9520 0426 d328 733a 62a6 0000 0000
000000e0: 0000 0080 0080 0080 0000 0080 0080 0080
000000f0: 0000
0.1576 -0.001251 0.11694 0.07074 -0.08795 -0.09064 0.856 0.03864
-1.302 0.03093 0.1263 0.315 0.04663 0.00917 -0.04596 -0.0602
0.06195 0.2001 -1.366 0.1569 -0.04196 0.02911 -0.01974 0.02419
0.8105 -0.01165 0.001942 -0.1528 -0.02821 -0.06384 0.06003 0.000511
0.724 -0.005344 -0.4783 -0.1497 0.0244 0.734 0.0923 -0.0631
0.01416 0.03738 -0.449 -0.0696 0.4524 0.0215 -0.0418 -0.01348
-0.0552 -0.01834 0.061 1.461 0.251 -0.01625 -0.04053 -0.4753
-0.02245 0.323 0.1941 -0.0862 -0.3518 0.6973 0.0406 0.979
-0.005066 -0.1849 0.04514 0.0321 -1.497 -0.2113 -0.04645 0.688
-0.01069 -0.02498 -0.0069 0.02026 0.6406 0.2742 0.01542 -0.2622
-0.1852 -0.03528 0.2666 -1.539 -0.0483 0.3618 0.01063 0.1835
-0.000662 -0.01949 0.502 0.2827 -0.0792 -0.466 0.0999 -0.02153
-0.002575 0.00932 -1.249 0.0578 0.829 -0.04153 -0.0446 0.539
0.1865 0.00895 0.0235 0.0377 0.806 -0.02493 0.0 0.0
0.0 -0.0 -0.0 -0.0 0.0 -0.0 -0.0 -0.0
0.0

arith.constant33 f2 [1, 5, 5, 11]
00000000: 8da8 49a8 a8a2 6725 ee24 b6a6 4925 e718
00000010: dd21 02ae 0080 4428 ba21 d124 6db1 0b9d
00000020: fa24 6427 bd12 c7a0 342c 0080 752a 3021
00000030: bd21 1e23 33ab 232b 3a20 acac f9ad 7f2d
00000040: 0080 fa26 3ca4 8326 2829 7525 b428 56ac
00000050: 50ac 1dae 3f2a 0080 0d21 5f99 c520 532a
00000060: 5b27 ae98 8fa1 a7aa 7920 2dac 0080 081e
00000070: 6ca0 342d 8e90 03a0 781d a3ac 3828 43a5
00000080: 9e2f 0080 9721 37b3 25b6 a4b0 fd2c fda7
00000090: ab32 6b98 8634 602c 0080 15b5 60b2 82bc
000000a0: 1e2d 8230 b9b4 f739 2435 e639 78b4 0080
000000b0: c1ad 29ad 2318 e8a3 7598 08b1 c327 d62e
000000c0: 9131 7131 0080 b929 6ca9 eaa8 eea6 f5a5
000000d0: 242a 4f29 e8ab c729 a29b 0080 1923 061f
000000e0: 6c29 c3b0 b5a9 ea28 26a8 461c 57ab 7930
000000f0: 0080 b0b3 7ab4 06b5 62ac 0532 66b3 3336
00000100: 1d33 2335 74b1 0080 7bbd 9fbc 82bc 4f40
00000110: 133c cfbc 353c 193d ba3c 8fbe 0080 62b2
00000120: dcb0 b4b2 df24 cf32 7ab5 9030 5636 3c32
00000130: 49ae 0000 8c26 f1a4 d825 41b0 3f29 5e24
00000140: 2dad 90a9 e7ab ae2c 0000 382a 23ad ff24
00000150: d6a8 9928 be29 b7a9 72ad 1098 f420 0080
00000160: 1dae 05aa 4baa 2d2c 972d fcac 0123 ee2a
00000170: ba24 eb99 0080 2db2 03b6 10ac f231 de37
00000180: dab5 832a 5334 522d f5b6 0080 b3a9 c2b4
00000190: b628 5aa3 8336 65a5 9fa2 6d24 05a4 1c2b
000001a0: 0080 6098 9024 719f 81a8 8ba4 dea8 76a1
000001b0: d823 e2a9 cb30 0000 49a9 6823 9228 2325
000001c0: e59c 931c a3a6 fea7 daa9 78ac 0080 a725
000001d0: ceaa ca2a f328 3728 1628 73ab aaad 21a4
000001e0: 4e2f 0000 512a 1025 a7ac a228 2a9d 5f2d
000001f0: 562c 99a1 3b2c 432e 0080 9c25 a4ab 4022
-0.03555 -0.03348 -0.013 0.0211 0.01926 -0.02621 0.02065 0.002394
0.01145 -0.0939 -0.0 0.03333 0.011185 0.01881 -0.1696 -0.004925
0.01944 0.02887 0.0008225 -0.00933 0.0657 -0.0 0.05045 0.01013
0.01121 0.0139 -0.05624 0.05576 0.008255 -0.073 -0.0933 0.0859
-0.0 0.02725 -0.01654 0.02544 0.04028 0.02132 0.03674 -0.06775
-0.0674 -0.0955 0.0488 -0.0 0.009865 -0.002623 0.009315 0.0494
0.02873 -0.002285 -0.01086 -0.05197 0.008736 -0.06525 -0.0 0.00589
-0.00864 0.0813 -0.000556 -0.007835 0.00534 -0.07245 0.03296 -0.02055
0.119 -0.0 0.01092 -0.2255 -0.384 -0.145 0.07794 -0.0312
0.2084 -0.002157 0.2827 0.06836 -0.0 -0.3176 -0.1992 -1.127
0.07996 0.1409 -0.2952 0.7456 0.3213 0.7373 -0.2793 -0.0
-0.0899 -0.0806 0.00202 -0.01544 -0.002176 -0.1572 0.03032 0.1068
0.174 0.17 -0.0 0.0447 -0.04236 -0.0384 -0.02707 -0.02327
0.04797 0.04147 -0.06177 0.04514 -0.003727 -0.0 0.01386 0.00686
0.04236 -0.1488 -0.0446 0.0384 -0.0324 0.004173 -0.05734 0.1398
-0.0 -0.2402 -0.2798 -0.314 -0.0685 0.1881 -0.2312 0.3875
0.2223 0.321 -0.1704 -0.0 -1.37 -1.155 -1.127 2.154
1.019 -1.202 1.052 1.274 1.182 -1.64 -0.0 -0.1995
-0.1519 -0.2095 0.01903 0.2128 -0.3423 0.1426 0.396 0.1948
-0.0982 0.0 0.02557 -0.0193 0.02283 -0.1329 0.041 0.01706
-0.0809 -0.04346 -0.06174 0.0731 0.0 0.04858 -0.08026 0.01952
-0.03778 0.03592 0.04486 -0.04465 -0.0851 -0.001984 0.009674 -0.0
-0.0955 -0.04703 -0.04916 0.06525 0.08734 -0.0779 0.01368 0.05414
0.01846 -0.00289 -0.0 -0.193 -0.3757 -0.0635 0.1858 0.4917
-0.3657 0.05087 0.2703 0.0831 -0.4348 -0.0 -0.04453 -0.2974
0.0368 -0.01436 0.407 -0.02107 -0.01293 0.01729 -0.0157 0.05554
-0.0 -0.002136 0.01782 -0.007267 -0.0352 -0.01775 -0.03802 -0.010666
0.01532 -0.04596 0.1498 0.0 -0.0413 0.014465 0.0357 0.02007
-0.00478 0.004467 -0.02592 -0.03122 -0.04572 -0.0698 -0.0 0.02208
-0.05316 0.05304 0.03867 0.03293 0.03192 -0.0582 -0.0885 -0.01613
0.11414 0.0 0.04935 0.01978 -0.0727 0.0362 -0.005043 0.0839
0.06775 -0.01093 0.0661 0.09784 -0.0 0.02191 -0.0597 0.01221

arith.constant34 f2 [11, 1, 1, 11]
00000000: ed36 0430 72ad fdae 1cb0 9a36 a128 80b6
00000010: 262b 5314 0000 2136 a330 c1b4 deb6 08af
00000020: 4137 0834 a9b5 f533 f6ba 0000 5432 f2b2
00000030: 2036 2d39 572f 6231 7bb9 2fb4 c2b9 d4ad
00000040: 0000 8eac 49a9 05aa 45ab c028 b2ab 0329
00000050: 7c2b b725 ed24 0080 50ae f7ae bfa1 4234
00000060: 272e a1ab 4610 4b26 4c93 c033 0000 fca4
00000070: a824 0d2a f5ac 641e cba8 7cad 4628 e8a7
00000080: 869c 0000 d4a6 e63c 6930 2838 e9bc 94b0
00000090: c2b3 0f30 5db5 1334 0080 8d22 bf22 252f
000000a0: 3fb5 37a9 d328 761c bfa1 9bac d3a6 0080
000000b0: d6b4 6028 9a34 e3b8 83ac cbb3 70ad 0235
000000c0: 7bae 03b9 0080 631c f3af b535 3ab1 f22f
000000d0: bfa2 49b4 bf1e 84b4 bd36 0000 c626 8a9c
000000e0: 2936 44b1 0590 74a0 28b4 36a9 26b4 2b2c
000000f0: 0000
0.4329 0.1255 -0.0851 -0.1092 -0.1284 0.4126 0.03616 -0.4062
0.05585 0.001056 0.0 0.383 0.1449 -0.297 -0.4292 -0.10986
0.4534 0.252 -0.3538 0.2487 -0.87 0.0 0.1978 -0.217
0.3828 0.647 0.1147 0.1682 -0.685 -0.2615 -0.7197 -0.09106
0.0 -0.07117 -0.0413 -0.04703 -0.0568 0.0371 -0.06012 0.03915
0.05847 0.02232 0.01924 -0.0 -0.09863 -0.1088 -0.01122 0.266
0.0961 -0.0596 0.0005217 0.02458 -0.0008907 0.2422 0.0 -0.01947
0.01819 0.04727 -0.07745 0.00624 -0.03745 -0.0857 0.0334 -0.03088
-0.004417 0.0 -0.02667 1.225 0.1378 0.5195 -1.228 -0.1431
-0.2424 0.1268 -0.3352 0.2546 -0.0 0.012794 0.013176 0.11163
-0.328 -0.04074 0.0377 0.004356 -0.01122 -0.07196 -0.02666 -0.0
-0.3022 0.03418 0.2876 -0.611 -0.0705 -0.2435 -0.08496 0.313
-0.10126 -0.6265 -0.0 0.004284 -0.1242 0.3567 -0.1633 0.12415
-0.013176 -0.2678 0.006588 -0.2822 0.4211 0.0 0.02646 -0.004433
0.385 -0.1646 -0.0004907 -0.0087 -0.2598 -0.0407 -0.2593 0.0651
0.0

arith.constant35 f2 [1, 7, 7, 32]
00000000: 8a24 2b29 162d 0000 4e31 0080 6f25 f030
00000010: 0b9a 5d8e 3eaa 8c30 632f 0e9d 0080 0022
00000020: 0080 0000 bfae 0d2a 9c2c ae2e 2ba8 87a5
00000030: 2fa1 4fa7 d62b d627 0caf 8027 0080 33ad
00000040: 3fad a021 c7a8 0000 0832 0080 b128 ef2f
00000050: 03a4 7828 6da7 1a30 7223 b724 0000 1b95
00000060: 0080 0000 85aa afa6 832e d828 661b e6a6
00000070: 792b e7a5 031f 88a8 35aa 4f15 0080 55a0
00000080: 63a6 a3a6 41b3 0000 bf30 0080 8f1f f82d
00000090: d1a2 789f b8a0 ec30 dcac e724 0080 e01d
000000a0: 0000 0080 3832 5da6 812d eb2a 3e25 4eaa
000000b0: 6333 ed24 deae 48a8 a5ab a0a7 0000 fb34
000000c0: fe29 36af 67b0 0000 3031 0080 4bb1 df2d
000000d0: 7f2c 52ac 8426 fd30 07b6 8b2a 0000 8120
000000e0: 0000 0000 3334 4b1c 792c 272e 5124 1ab1
000000f0: ed38 a42c 512c 52ae 90a7 b3a1 0080 0e33
00000100: 66a6 489c 69b0 0000 52ad 0080 5ea2 022c
00000110: 24aa 902c 8faa 27b0 57b0 9c25 0080 c5a4
00000120: 0080 0080 0330 1ea8 c62c d4a7 bda9 4fb2
00000130: aa32 5999 362c 15ae 1aac f5a9 0080 83a5
00000140: 389e db2a 32aa 0000 3730 0080 e2a8 b62c
00000150: 62a3 f825 faa9 ac2f 2dac af24 0000 52a8
00000160: 0000 0080 b729 e0a5 8b2f 5a31 1624 8828
00000170: 5f22 7d30 fca2 1dae ddaa eda5 0000 11a1
00000180: 652d d12b f429 0000 be30 0080 452c d92f
00000190: 9899 b6ad ed0f c427 e62e 64a2 0000 5116
000001a0: 0080 0080 ada7 7a29 8f31 ed2c f829 2429
000001b0: 77ad bd29 882a d2a7 eaac 04a6 0000 aa1b
000001c0: 2e2c 832c 0527 0000 5132 0080 302a fd29
000001d0: 57a1 62a1 84a8 af34 652d 8f16 0000 1dac
000001e0: 0080 0000 dda9 a62b ba2e 5f32 9ba8 a72f
000001f0: 57ad 771f eb22 e12a 7dac c99a 0080 3c2c
0.01773 0.04037 0.07947 0.0 0.1658 -0.0 0.02122 0.1543
-0.00295 -0.0003884 -0.04877 0.1421 0.1154 -0.004936 -0.0 0.01172
-0.0 0.0 -0.1054 0.04727 0.072 0.1044 -0.03256 -0.02159
-0.010124 -0.02855 0.06122 0.03061 -0.1101 0.0293 -0.0 -0.08124
-0.082 0.01099 -0.03732 0.0 0.1885 -0.0 0.03665 0.12396
-0.01567 0.0349 -0.029 0.1282 0.01454 0.01842 0.0 -0.001246
-0.0 0.0 -0.05093 -0.02611 0.10175 0.03784 0.003613 -0.02695
0.05838 -0.02306 0.006847 -0.0354 -0.0485 0.001296 -0.0 -0.00846
-0.02495 -0.02592 -0.2267 0.0 0.1483 -0.0 0.00738 0.09326
-0.01331 -0.007294 -0.00922 0.1538 -0.0759 0.01915 -0.0 0.005737
0.0 -0.0 0.1943 -0.02486 0.086 0.05405 0.02048 -0.04926
0.2308 0.01924 -0.1073 -0.03345 -0.05972 -0.02979 0.0 0.3113
0.0468 -0.1127 -0.1376 0.0 0.1621 -0.0 -0.1654 0.09174
0.07025 -0.0675 0.02545 0.1559 -0.3767 0.05112 0.0 0.0088
0.0 0.0 0.2625 0.004192 0.0699 0.0961 0.01686 -0.1594
0.6157 0.0725 0.06744 -0.09875 -0.02954 -0.01113 -0.0 0.2205
-0.025 -0.00418 -0.1378 0.0 -0.0831 -0.0 -0.012436 0.0626
-0.04797 0.0713 -0.05124 -0.1298 -0.1356 0.02191 -0.0 -0.01863
-0.0 -0.0 0.1254 -0.03217 0.0746 -0.03058 -0.04483 -0.1971
0.2083 -0.002611 0.0658 -0.09503 -0.0641 -0.04654 -0.0 -0.02153
-0.006073 0.05356 -0.0484 0.0 0.1317 -0.0 -0.03815 0.0736
-0.01442 0.02332 -0.0467 0.1199 -0.06525 0.0183 0.0 -0.03375
0.0 -0.0 0.04465 -0.02295 0.11786 0.1672 0.01596 0.0354
0.01244 0.1403 -0.01364 -0.0955 -0.05362 -0.02315 0.0 -0.009895
0.0843 0.06107 0.0465 0.0 0.1482 -0.0 0.0667 0.1226
-0.002731 -0.08923 0.0004838 0.03033 0.1078 -0.01248 0.0 0.001542
-0.0 -0.0 -0.02998 0.0428 0.1737 0.07697 0.04663 0.04016
-0.0854 0.04483 0.05103 -0.03055 -0.0768 -0.0235 0.0 0.003742
0.0653 0.0705 0.02742 0.0 0.1974 -0.0 0.04834 0.04678
-0.01043 -0.01051 -0.03528 0.2927 0.0843 0.001601 0.0 -0.0643
-0.0 0.0 -0.0458 0.05975 0.1051 0.1991 -0.03598 0.11957
-0.08344 0.00729 0.01351 0.05374 -0.0701 -0.003313 -0.0 0.06616

arith.constant36 f2 [11, 1, 1, 32]
00000000: 0080 0000 0000 0000 0080 0000 0080 0000
00000010: 0080 0080 0080 0080 0080 0000 0000 0080
00000020: 0000 0000 0000 0000 0080 0080 0000 0080
00000030: 0000 0000 0080 0080 0000 0000 0000 0000
00000040: e015 e2ab a520 0000 f0a2 0080 2610 6ea1
00000050: 739a fda1 5322 2524 b399 9826 0080 3eab
00000060: 0080 0080 c4aa bca0 f221 391d b39c 7db2
00000070: e311 072c 52a4 0d18 5f25 24ad 0000 8938
00000080: 03b2 3d30 149c 0000 31a2 0080 82a5 2829
00000090: 55a2 8332 ec1b daa2 7c2c 0fad 0000 80a5
000000a0: 0080 0080 5c26 28b4 77ad cba3 94a9 2d2c
000000b0: 0fa5 99b9 07b1 a7ac eb22 7339 0080 962c
000000c0: 6db8 3ea5 f4a9 0080 9129 0080 1f2b 2b24
000000d0: 0f28 f239 8a2c 49ac 87ae 48a7 0080 23b1
000000e0: 0000 0000 04ad c8b8 93a8 dea4 51a9 3e9a
000000f0: 2fa1 e3ac d0b8 0ab4 e424 78a4 0000 1aa1
00000100: 392d 42b3 afa5 0080 ae24 0080 2131 06b4
00000110: b836 5c80 5b32 03b5 3c32 b434 0000 5f31
00000120: 0000 0000 4023 4f2c 4630 47b8 6230 71aa
00000130: 6aaf c534 09ad bea9 fb35 37b1 0000 ccaf
00000140: 7db1 f229 4dad 0000 643a 0000 b8b5 22b6
00000150: ec33 0f30 5435 dcb8 252e fa9a 0080 aaae
00000160: 0080 0000 f034 31b1 9725 7e35 f220 ea30
00000170: 65b0 b032 cab0 1ab8 e4b2 e9aa 0080 1731
00000180: 9ca4 91b8 419f 0000 40a7 0080 619d bc2d
00000190: 1da6 71a2 a222 5aa1 4b2d 5c9c 0080 cc2b
000001a0: 0080 0080 3cad 0ca9 f8a7 0729 5e9a 3a38
000001b0: b835 0427 9aa3 d6a5 1521 9628 0080 a932
000001c0: c5a0 4028 2ea2 0000 66b0 0080 0aaa e6b1
000001d0: 4daa a71f 8fb0 9234 20a9 1127 0000 8e2d
000001e0: 0080 0000 2c28 60a5 1631 832f f21a 20ab
000001f0: 86a0 4b22 c917 46af 6ca6 d2a5 0000 e8a4
-0.0 0.0 0.0 0.0 -0.0 0.0 -0.0 0.0
-0.0 -0.0 -0.0 -0.0 -0.0 0.0 0.0 -0.0
0.0 0.0 0.0 0.0 -0.0 -0.0 0.0 -0.0
0.0 0.0 -0.0 -0.0 0.0 0.0 0.0 0.0
0.001434 -0.06158 0.00907 0.0 -0.01355 -0.0 0.0005064 -0.010605
-0.003149 -0.011696 0.01235 0.01619 -0.002783 0.02576 -0.0 -0.05658
-0.0 -0.0 -0.05286 -0.00925 0.01161 0.0051 -0.00459 -0.2028
0.0007186 0.0629 -0.01688 0.001978 0.02098 -0.0803 0.0 0.567
-0.1879 0.1324 -0.003983 0.0 -0.01209 -0.0 -0.02151 0.04028
-0.01237 0.2035 0.003868 -0.01338 0.07007 -0.07904 0.0 -0.02148
-0.0 -0.0 0.02484 -0.2598 -0.0854 -0.01522 -0.04358 0.06525
-0.01976 -0.6997 -0.1571 -0.0727 0.01351 0.681 -0.0 0.07166
-0.553 -0.02048 -0.0465 -0.0 0.0435 -0.0 0.05563 0.01628
0.0317 0.743 0.0709 -0.06696 -0.102 -0.02844 -0.0 -0.1605
0.0 0.0 -0.07837 -0.5977 -0.03574 -0.01901 -0.04153 -0.003048
-0.010124 -0.07635 -0.6016 -0.2524 0.0191 -0.01746 0.0 -0.009964
0.0816 -0.2268 -0.0222 -0.0 0.01828 -0.0 0.1603 -0.2515
0.42 -5.5e-06 0.1986 -0.3132 0.1948 0.294 0.0 0.1678
0.0 0.0 0.01416 0.0673 0.1335 -0.5347 0.137 -0.05032
-0.11584 0.298 -0.0787 -0.04486 0.3738 -0.163 0.0 -0.1218
-0.1715 0.04645 -0.0828 0.0 0.799 0.0 -0.3574 -0.3833
0.2476 0.1268 0.333 -0.6074 0.096 -0.003407 -0.0 -0.1041
-0.0 0.0 0.3086 -0.1622 0.02184 0.3433 0.00966 0.1536
-0.1373 0.209 -0.1497 -0.5127 -0.2153 -0.054 -0.0 0.159
-0.018 -0.571 -0.007084 0.0 -0.02832 -0.0 -0.005253 0.0896
-0.02388 -0.01258 0.012955 -0.01045 0.0827 -0.004257 -0.0 0.0609
-0.0 -0.0 -0.0818 -0.03943 -0.03113 0.03928 -0.003109 0.5283
0.3574 0.0274 -0.01485 -0.0228 0.009926 0.03583 -0.0 0.2081
-0.009315 0.0332 -0.01207 0.0 -0.1375 -0.0 -0.04718 -0.1843
-0.04922 0.007473 -0.1425 0.2856 -0.04004 0.0276 0.0 0.0868
-0.0 0.0 0.0326 -0.021 0.1589 0.1174 0.003391 -0.05566
-0.008835 0.01229 0.001901 -0.11365 -0.02509 -0.02274 0.0 -0.01917

arith.constant37 f2 [1, 7, 7, 11]
00000000: 0080 7e29 a927 c923 ea21 0994 3121 c328
00000010: d89c 0b27 ef2a 0080 8a25 3529 a428 1a2a
00000020: a628 0a9d 88ad 281c 3b27 df24 0080 aa27
00000030: 9ba6 022b b42f b1aa 5621 1727 11a8 812a
00000040: 362b 0080 b9a8 ce98 ec1f 762a bdb0 c0ac
00000050: c52c 79a5 0a2d fa2c 0080 a6a8 1c27 bea9
00000060: 05a8 e0ad c20d 012f 4c9e af9b 86a8 0080
00000070: 1da5 c027 55a4 d3a8 38ae 5c23 5c2a 649f
00000080: 6ba8 7ead 0000 1b28 d8a7 242a 43b0 5faa
00000090: f828 6b29 19a0 aeaf 75b2 0000 a827 cb29
000000a0: 18a9 bea1 d0a8 dc1e 9b2a aaa9 ea21 58a5
000000b0: 0080 5425 d328 22ab 4d30 0da0 94a9 e8a8
000000c0: 0a9f d925 d022 0080 1a2c bba8 1db3 142d
000000d0: 7cae 0323 c22e 58ad 0f30 5d2e 0080 fea7
000000e0: 382b 20b1 f9ac 79ad d5ae c4a5 c9a0 09aa
000000f0: 3805 0080 e8a1 d0a1 56b2 69b2 b42e cb25
00000100: a11a 32ae acb0 8dac 0080 0f27 2c2c d7b1
00000110: a5a5 efac e9a9 8aac c413 0a1e 03ab 0080
00000120: ca24 d52b 05a6 2da9 5eb0 419b d32b 739e
00000130: c6a9 48ad 0080 c2a6 3d29 3c24 d6aa f1a0
00000140: 17a8 d81a 4829 c4a6 9a99 0080 bea5 23a0
00000150: 3823 4e28 d697 6eac 7aac 6515 8e2b d02e
00000160: 0080 292c c727 4c32 b8ab 059f 0321 9f95
00000170: 0ab1 d933 e833 0080 e129 aaad 1731 0eb3
00000180: a026 0cac 4130 3d2c 61b8 42b8 0080 5c9e
00000190: 6eac 2036 12b6 3e34 0ea4 8927 79ac 40ba
000001a0: cdb9 0080 ec27 cba0 69aa e6b2 192d b6a8
000001b0: 76af 07a4 d4b0 b5b1 0080 bc28 be93 2628
000001c0: d7ae 0bae da9c ba2c f028 17a3 ed1f 0080
000001d0: c3a4 8820 eea5 c6a7 6296 43ae 532c a326
000001e0: 26a6 5b23 0000 6924 271c dba0 fc2e 1429
000001f0: 8424 e0ab 38ae 242b b92a 0080 5b28 529d
-0.0 0.0429 0.02992 0.015205 0.01155 -0.000985 0.01014 0.0372
-0.00473 0.02751 0.05417 -0.0 0.02164 0.04068 0.03625 0.04767
0.03632 -0.00492 -0.0864 0.00406 0.02824 0.01903 -0.0 0.02994
-0.0258 0.05475 0.12036 -0.05228 0.01042 0.0277 -0.03177 0.0508
0.05634 -0.0 -0.0369 -0.002346 0.007736 0.05048 -0.1481 -0.0742
0.0745 -0.02138 0.07874 0.07776 -0.0 -0.03632 0.02777 -0.04486
-0.0314 -0.0918 0.0003514 0.10944 -0.00615 -0.003752 -0.03534 -0.0
-0.01997 0.03027 -0.01692 -0.0377 -0.09717 0.01437 0.04968 -0.007217
-0.03452 -0.0858 0.0 0.03207 -0.03064 0.04797 -0.1332 -0.04977
0.03882 0.04233 -0.008 -0.12 -0.2018 0.0 0.0299 0.04526
-0.0398 -0.011215 -0.0376 0.0067 0.0516 -0.04425 0.01155 -0.02087
-0.0 0.02081 0.0377 -0.05573 0.1344 -0.00791 -0.04358 -0.03833
-0.006874 0.02284 0.013306 -0.0 0.0641 -0.03696 -0.2223 0.07935
-0.1013 0.013695 0.1056 -0.0835 0.1268 0.0994 -0.0 -0.03122
0.0564 -0.1602 -0.0777 -0.0855 -0.10675 -0.02252 -0.009346 -0.04715
7.963e-05 -0.0 -0.011536 -0.01135 -0.198 -0.2003 0.10474 0.02263
0.003237 -0.0968 -0.146 -0.0711 -0.0 0.02757 0.0652 -0.1825
-0.02205 -0.0771 -0.04617 -0.0709 0.000948 0.005898 -0.05478 -0.0
0.0187 0.0612 -0.02351 -0.04044 -0.1365 -0.003542 0.06113 -0.006298
-0.0451 -0.0825 -0.0 -0.0264 0.04092 0.01654 -0.0534 -0.00965
-0.03195 0.003342 0.04126 -0.02643 -0.002735 -0.0 -0.02243 -0.00808
0.0141 0.03363 -0.001913 -0.0692 -0.06995 0.001317 0.05902 0.10645
-0.0 0.065 0.03038 0.1968 -0.0603 -0.006855 0.00979 -0.001372
-0.1575 0.2452 0.2471 -0.0 0.04593 -0.0885 0.159 -0.2205
0.02588 -0.06323 0.1329 0.0662 -0.5474 -0.532 -0.0 -0.00621
-0.0692 0.3828 -0.3794 0.2651 -0.01584 0.02943 -0.0699 -0.7812
-0.725 -0.0 0.03094 -0.00936 -0.05008 -0.2156 0.07965 -0.0368
-0.1166 -0.01573 -0.1509 -0.1783 -0.0 0.037 -0.000945 0.0324
-0.1069 -0.0944 -0.004738 0.07385 0.03857 -0.01385 0.00774 -0.0
-0.0186 0.00885 -0.02316 -0.03036 -0.001558 -0.09784 0.06757 0.02592
-0.02402 0.014366 0.0 0.01723 0.004055 -0.00948 0.10913 0.03967
0.01764 -0.06152 -0.09717 0.0558 0.05252 -0.0 0.03403 -0.005196

arith.constant38 f2 [11, 1, 1, 11]
00000000: 0080 5aab afa8 5f2d 6322 2ea1 bc27 fb28
00000010: 0b26 8526 dc18 0080 dd26 7434 842f 2f2d
00000020: a831 c0b7 13b1 dfa9 ed2b 92af 0000 8e34
00000030: 50b0 58b1 5fac 49af 77b9 bd2e 4ab2 879b
00000040: 2629 0080 a8b1 9437 85b5 bd41 62b1 5da6
00000050: f9c1 8f38 69c3 223e 0000 4baf ceb2 6bb5
00000060: e6ac b324 71a9 7328 d4af 4f2a 86a9 0000
00000070: 9c9c a534 64b1 b2b1 0240 2428 59b8 db2c
00000080: b63d 6ec1 0080 0e33 f727 53b3 4d25 68ac
00000090: e2b7 3f2b 3720 e82d ad2e 0080 1d2f 4e38
000000a0: 3c2a f4a9 4da9 aa2d fb2c b135 afa1 c2a4
000000b0: 0000 7136 ffb9 a614 d12c 7e30 fcaf 92a7
000000c0: 1e25 36ab 8bae 0000 6f36 67ac e6b4 a32e
000000d0: 0930 d337 adae 5837 f2aa 36ab 0080 2236
000000e0: ce2d 462e d29c 549c 8c33 6b83 13a5 fb21
000000f0: cba8
-0.0 -0.05743 -0.0366 0.0839 0.012474 -0.01012 0.03021 0.0389
0.0236 0.02547 0.002373 -0.0 0.02681 0.2783 0.11743 0.081
0.1768 -0.4844 -0.1586 -0.04587 0.06192 -0.1183 0.0 0.2847
-0.1348 -0.167 -0.0683 -0.11383 -0.683 0.1053 -0.1965 -0.003675
0.04022 -0.0 -0.1768 0.4736 -0.345 2.87 -0.1682 -0.02486
-2.986 0.57 -3.705 1.533 0.0 -0.11395 -0.2126 -0.3386
-0.07654 0.01836 -0.0425 0.03476 -0.1223 0.0493 -0.04315 0.0
-0.0045 0.2903 -0.1685 -0.178 2.004 0.03235 -0.5435 0.07587
1.428 -2.715 -0.0 0.2205 0.03111 -0.2289 0.0207 -0.06885
-0.4927 0.0566 0.00823 0.0923 0.1043 -0.0 0.11115 0.538
0.0487 -0.0465 -0.0414 0.0885 0.0778 0.3557 -0.0111 -0.01859
0.0 0.4026 -0.7495 0.001135 0.07526 0.1404 -0.12476 -0.02957
0.01999 -0.05634 -0.10223 0.0 0.402 -0.0688 -0.3062 0.1037
0.1261 0.489 -0.1043 0.459 -0.05426 -0.05634 -0.0 0.3833
0.0907 0.098 -0.004707 -0.004227 0.2358 -5.215e-05 -0.01982 0.01168
-0.03745

arith.constant39 f2 [1, 3, 3, 11]
00000000: f4aa cd25 57a6 4f29 cf2f c5ae 0b2b 2c32
00000010: 2b2f 1fa4 f223 8733 6db3 e22e 13b4 7c2a
00000020: 7036 06b1 dc2b 3228 27b3 6d35 b22f 07a1
00000030: dcac f99c 3d31 81a9 0ab0 d631 2129 cfa6
00000040: c326 7334 53b0 5c2e f92d 1131 fbb0 19ae
00000050: 3829 f0b1 cdb2 cb35 1c3c bd36 a738 f434
00000060: 453c 4ab1 f3b7 8ebb 23ba e2bb b93c 1b35
00000070: 85a9 9c30 d427 ef28 ccad dfa9 992c f1b0
00000080: 7fb0 7334 5a2e 2daa 14aa 5127 6c2b 89ac
00000090: 36a6 6331 e228 752f 88a7 3f34 4ab4 2c2e
000000a0: acb4 6b2e 3d35 20af c62b 5527 5aa4 3d31
000000b0: 38ab 8aa9 78af 0fad ff2a 0224 6d2a 7633
000000c0: 9029 942b e6a9
-0.05432 0.02266 -0.02477 0.04147 0.122 -0.1058 0.05502 0.1929
0.112 -0.0161 0.01552 0.2352 -0.232 0.10754 -0.2546 0.05066
0.4023 -0.157 0.0614 0.03278 -0.2235 0.339 0.12024 -0.00982
-0.0759 -0.004856 0.1637 -0.043 -0.1262 0.1824 0.04007 -0.0266
0.02641 0.278 -0.1351 0.09937 0.0933 0.1583 -0.1556 -0.0953
0.04077 -0.1855 -0.2125 0.362 1.027 0.4211 0.5815 0.3096
1.067 -0.1653 -0.4968 -0.9443 -0.767 -0.9854 1.181 0.319
-0.04312 0.144 0.03058 0.03854 -0.0906 -0.04587 0.07184 -0.1544
-0.1405 0.278 0.09924 -0.04825 -0.0475 0.02858 0.05798 -0.07086
-0.02426 0.1683 0.03815 0.1165 -0.02942 0.2654 -0.268 0.09644
-0.292 0.1003 0.3274 -0.1113 0.06073 0.02864 -0.017 0.1637
-0.0564 -0.04327 -0.1167 -0.07904 0.05466 0.01566 0.0502 0.2332
0.04346 0.0592 -0.04608

arith.constant40 f2 [11, 1, 1, 11]
00000000: deb1 e92c 10a7 5e2a c136 cea5 9197 332a
00000010: 1829 7ca2 a8ad 1334 a7b8 17ae 1a31 fa36
00000020: 0b9b ffa9 7f38 caad 6e34 c934 2735 a62c
00000030: 24b7 f72f 1bb0 aeb0 62b8 23b3 3a2e acae
00000040: 6992 0080 0080 0000 0080 0000 0000 0000
00000050: 0000 0080 0000 0080 1128 2734 7332 bca1
00000060: 07b1 8d2e 59b1 92b7 52b0 992f bb3c c120
00000070: 1fa2 289d 5429 2ca7 c9a5 88a4 9827 3b27
00000080: 1aa4 fa20 0f27 8ca0 46a3 c9aa 612b 982e
00000090: cb20 2c29 1925 0534 c0b4 82b2 44ad aaa2
000000a0: afb1 c335 0130 0c9f e935 0ea8 892a d7b4
000000b0: 98b5 ea22 33b1 ab25 dbad e6a7 f7aa 2e2d
000000c0: 5cb5 be21 0f9a 8a3c 0634 3524 81a7 6333
000000d0: 04a0 582d 45b3 edb7 37ab 17a9 83b6 e1b3
000000e0: 7733 dcb0 6838 3835 3732 8133 9b94 7fb2
000000f0: a638
-0.1833 0.0767 -0.02759 0.04974 0.422 -0.02267 -0.001847 0.04843
0.0398 -0.012665 -0.0884 0.2546 -0.5815 -0.09515 0.1594 0.436
-0.003439 -0.04684 0.562 -0.09045 0.2769 0.299 0.322 0.07263
-0.4463 0.12445 -0.1283 -0.1462 -0.548 -0.223 0.0973 -0.10425
-0.0007825 -0.0 -0.0 0.0 -0.0 0.0 0.0 0.0
0.0 -0.0 0.0 -0.0 0.03177 0.2595 0.2015 -0.0112
-0.1571 0.10236 -0.1671 -0.4731 -0.135 0.1187 1.183 0.009285
-0.011955 -0.005035 0.04163 -0.02802 -0.0226 -0.0177 0.02966 0.02824
-0.01602 0.00972 0.02757 -0.00888 -0.014206 -0.053 0.05765 0.103
0.00936 0.0404 0.01991 0.2512 -0.2969 -0.2034 -0.0823 -0.013016
-0.1776 0.36 0.1251 -0.00688 0.3694 -0.03168 0.05106 -0.3025
-0.3496 0.013504 -0.1625 0.02214 -0.0915 -0.03085 -0.0544 0.08093
-0.335 0.011215 -0.002958 1.135 0.2515 0.01643 -0.02931 0.2308
-0.00784 0.0835 -0.2272 -0.4954 -0.05637 -0.03976 -0.407 -0.2462
0.2333 -0.1519 0.551 0.3262 0.1942 0.2345 -0.001124 -0.203
0.581

arith.constant41 f2 [1, 3, 3, 11]
00000000: 72b8 1719 8b2f 0000 9cae 2bb5 3937 69af
00000010: 7c34 152c 042b c431 bfa0 3f32 0080 c42e
00000020: 41b6 2ab5 db39 11b6 11b2 a5b0 fdb7 3c2d
00000030: 93a9 0000 99af 5fb4 c237 d2b0 2833 af27
00000040: 1e2c 0a2d 35b5 7f30 0080 de31 22b5 05b5
00000050: e038 b5b2 0ab2 f5af 8e3d 4db8 f237 0080
00000060: ce39 5839 c0bd c7bd bdba 25b8 37b8 f622
00000070: e4b4 1b2f 0080 f130 21b5 40b5 1039 41b2
00000080: afb2 ccad 33b8 082d 48a8 0000 e1af 50b3
00000090: d036 79b0 1833 10a9 1430 b12e 0bad b931
000000a0: 0000 2e33 66b5 fdb5 af39 96b5 8db2 40ae
000000b0: 13b8 28a9 2130 0000 8dab 56b7 1037 dfac
000000c0: 0334 c22f 7c2e
-0.5557 0.002485 0.11786 0.0 -0.1033 -0.323 0.4514 -0.1158
0.2803 0.0638 0.0548 0.1802 -0.00927 0.1952 -0.0 0.1057
-0.3909 -0.3228 0.732 -0.3792 -0.1896 -0.1451 -0.4993 0.0818
-0.04355 0.0 -0.1187 -0.2732 0.4849 -0.1506 0.2236 0.03001
0.06433 0.07874 -0.3254 0.1405 -0.0 0.1833 -0.3208 -0.3137
0.6094 -0.2096 -0.1887 -0.1243 1.389 -0.5376 0.4966 -0.0
0.7256 0.668 -1.4375 -1.444 -0.8423 -0.518 -0.527 0.013596
-0.3057 0.111 -0.0 0.1544 -0.3206 -0.3281 0.633 -0.1954
-0.2089 -0.0906 -0.525 0.0786 -0.03345 0.0 -0.1231 -0.2285
0.4258 -0.1398 0.2217 -0.03955 0.1274 0.10455 -0.0788 0.1788
0.0 0.2244 -0.3374 -0.3743 0.7104 -0.349 -0.2047 -0.09766
-0.5093 -0.04028 0.129 0.0 -0.059 -0.4585 0.4414 -0.0761
0.2507 0.1212 0.1013

arith.constant42 f2 [11, 1, 1, 11]
00000000: 7933 07b1 dcb1 0080 2430 bdaf be34 54b5
00000010: c52e c832 7435 2631 34b1 c5b8 0080 0034
00000020: e0aa 4135 2eb9 2227 6d35 21b6 092d d537
00000030: 662e 0080 8bb8 4db5 c1bc 12ac c2aa 6731
00000040: 75b4 1ea2 ffa7 1b26 0000 3625 27a4 1999
00000050: 13a4 839f 129c 57a5 81b3 0138 68b7 0000
00000060: 5ab0 e0b2 bea6 35b7 9229 beae 02b0 6138
00000070: e433 fa2b 0000 ceae 213f 0334 0bb6 f230
00000080: b7a8 e136 67ac 8e9a 5f30 0000 8833 b5b6
00000090: 6038 99bb ddbd 553b baad 8a2e 02b1 e9b3
000000a0: 0080 2132 1caf a835 13b1 ad32 23ac a830
000000b0: 74ba 1636 8931 0080 912f 0536 4927 b9bc
000000c0: 6d37 12b9 c030 7b3d 61ac cf2f 0080 bdb5
000000d0: 3fb5 ea28 0cb5 9eac b82c df2f 6530 8534
000000e0: b036 0080 8ab8 08b8 16b8 80b9 cc32 63b6
000000f0: 0031
0.2335 -0.1571 -0.1831 -0.0 0.1294 -0.1209 0.2964 -0.333
0.1058 0.2119 0.3408 0.1609 -0.1626 -0.596 -0.0 0.25
-0.0537 0.3284 -0.6475 0.02786 0.339 -0.383 0.0787 0.4895
0.1 -0.0 -0.568 -0.3313 -1.188 -0.0636 -0.0528 0.1688
-0.2786 -0.01195 -0.03123 0.02385 0.0 0.02036 -0.01622 -0.00249
-0.01591 -0.007336 -0.003975 -0.02086 -0.2345 0.5005 -0.463 0.0
-0.136 -0.2148 -0.02634 -0.4504 0.04352 -0.10535 -0.1252 0.5474
0.2466 0.06232 0.0 -0.1063 1.782 0.2507 -0.3777 0.1545
-0.03683 0.43 -0.0688 -0.0032 0.1366 0.0 0.2354 -0.4192
0.547 -0.9497 -1.466 0.9165 -0.0895 0.1022 -0.1565 -0.2472
-0.0 0.1915 -0.1111 0.3535 -0.1586 0.2086 -0.06464 0.1455
-0.8066 0.3804 0.173 -0.0 0.1182 0.3762 0.02846 -1.181
0.464 -0.634 0.1484 1.37 -0.0684 0.122 -0.0 -0.3586
-0.328 0.0384 -0.3154 -0.07214 0.0737 0.123 0.1373 0.2825
0.418 -0.0 -0.5674 -0.504 -0.5107 -0.6875 0.2124 -0.3992
0.1562

arith.constant43 f2 [1, 7, 7, 32]
00000000: 9325 9ea9 c8ac 0000 d99f 0080 3c2b c5aa
00000010: 9ea8 a8a1 58ab 082c a223 1aa4 0080 0da8
00000020: 0000 0000 b8a5 a026 9d27 96a4 6aa7 0e14
00000030: 57a3 ae25 8a1f f69b ac9f 5aa0 0000 3b22
00000040: 471f f5a8 caa9 0000 6520 0000 792b f1af
00000050: 6dab a9a1 59a5 2622 5421 cc20 0080 faa1
00000060: 0000 0000 3fac 1727 039c 13a0 c9ad 289b
00000070: 5b2a a824 41a6 d5a9 a7a7 881f 0000 da24
00000080: 6ca2 141c 23a9 0080 8427 0000 93a1 ddb1
00000090: 5a9e 172c 3126 3ba6 c427 3ea4 0080 dc2e
000000a0: 0000 0000 36a8 e51e 1e28 bc9e 29a6 92ac
000000b0: 4025 961f 75a4 152e 96ab 37a0 0000 fa1e
000000c0: cba8 0c20 b12c 0080 e6a9 0000 1128 8f1d
000000d0: 26a4 54a5 2c28 6aa5 e92a 9e1e 0080 b3a4
000000e0: 0000 0000 5124 aaac 2929 84ae 2525 63ae
000000f0: c7ad 972b 142a a4a4 50ac 3daa 0080 43a9
00000100: 3e27 e51d 8e2d 0080 e022 0000 9098 e1aa
00000110: 31a0 3625 8428 c2a4 f2ac 5915 0080 2fac
00000120: 0000 0000 6d28 1d2a 192c 7297 6529 03ab
00000130: efac 3d22 319c 9f26 b8aa 69ab 0000 2620
00000140: 5e26 f3a1 9ea0 0080 e223 0000 a72d fdb0
00000150: 69ad 2f21 5999 1716 b420 18a1 0000 5da5
00000160: 0000 0000 9a28 8923 bea1 279c 6f23 591b
00000170: 7524 521c f820 74a2 77a9 cfa8 0080 109e
00000180: cda4 d2a0 64ab 0080 24a4 0000 e625 e4ad
00000190: ed26 9ca4 dda8 cc2a 7a1c 3814 0080 4226
000001a0: 0000 0000 509e dfa2 452a 2bac 7d9f e5a8
000001b0: a0a2 f927 f6a1 fda2 48a0 d799 0000 3320
000001c0: 9826 37a5 87a5 0080 04a5 0080 961e 67a9
000001d0: 0ca9 b5a2 c727 b02a 11a9 c199 0080 dcaa
000001e0: 0000 0000 1725 6ca7 382c a224 1895 8d9d
000001f0: 4e24 9325 28a4 182a 22a8 5b21 0000 d928
0.02177 -0.04388 -0.0747 0.0 -0.007664 -0.0 0.05652 -0.0529
-0.03607 -0.01105 -0.05737 0.063 0.01491 -0.01602 -0.0 -0.03165
0.0 0.0 -0.02234 0.02588 0.02974 -0.01791 -0.02896 0.00099
-0.014336 0.02219 0.007362 -0.003887 -0.007492 -0.0085 0.0 0.01217
0.007107 -0.03873 -0.04523 0.0 0.00858 0.0 0.05838 -0.1241
-0.058 -0.011055 -0.02089 0.01201 0.01041 0.00937 -0.0 -0.01167
0.0 0.0 -0.06635 0.0277 -0.003918 -0.00796 -0.0904 -0.003494
0.04965 0.01819 -0.02443 -0.04556 -0.02989 0.007355 0.0 0.01895
-0.01254 0.003983 -0.04013 -0.0 0.02936 0.0 -0.01089 -0.1832
-0.006203 0.0639 0.02419 -0.02434 0.03033 -0.01657 -0.0 0.1072
0.0 0.0 -0.0329 0.006733 0.03217 -0.006577 -0.02406 -0.0714
0.02051 0.00741 -0.01741 0.09503 -0.05927 -0.00823 0.0 0.006813
-0.03745 0.007904 0.0733 -0.0 -0.04608 0.0 0.03177 0.00543
-0.0162 -0.02081 0.0326 -0.02115 0.054 0.006462 -0.0 -0.01836
0.0 0.0 0.01686 -0.0729 0.0403 -0.1018 0.0201 -0.0998
-0.0903 0.0593 0.0475 -0.01813 -0.0674 -0.04874 -0.0 -0.0411
0.02829 0.005756 0.0868 -0.0 0.01343 0.0 -0.002228 -0.05374
-0.00819 0.02036 0.03528 -0.01859 -0.0773 0.001306 -0.0 -0.06537
0.0 0.0 0.03458 0.04776 0.064 -0.001818 0.04214 -0.05478
-0.0771 0.012184 -0.004093 0.02586 -0.0525 -0.0579 0.0 0.0081
0.02487 -0.01162 -0.00902 -0.0 0.015396 0.0 0.0883 -0.1559
-0.08453 0.010124 -0.002611 0.001487 0.009186 -0.00995 0.0 -0.02095
0.0 0.0 0.03595 0.01472 -0.011215 -0.004055 0.01452 0.003588
0.01741 0.00422 0.009705 -0.0126 -0.0427 -0.03757 -0.0 -0.00592
-0.01875 -0.009415 -0.05774 -0.0 -0.01617 0.0 0.02304 -0.09204
0.02705 -0.018 -0.038 0.0531 0.00437 0.00103 -0.0 0.02444
0.0 0.0 -0.006165 -0.01342 0.04898 -0.0651 -0.007313 -0.03824
-0.01294 0.03114 -0.01164 -0.01365 -0.00836 -0.002851 0.0 0.0082
0.02576 -0.02037 -0.02159 -0.0 -0.01959 -0.0 0.00643 -0.0422
-0.03943 -0.0131 0.03038 0.05225 -0.03958 -0.00281 -0.0 -0.0536
0.0 0.0 0.01988 -0.02899 0.0659 0.0181 -0.001244 -0.00542
0.01682 0.02177 -0.01624 0.0476 -0.0323 0.01046 0.0 0.03787
